{"format": "graph-model", "generatedBy": "1.14.0", "convertedBy": "TensorFlow.js Converter v1.7.4r1", "userDefinedMetadata": {"signature": {"inputs": {"image_tensor:0": {"name": "image_tensor:0", "dtype": "DT_UINT8", "tensorShape": {"dim": [{"size": "-1"}, {"size": "-1"}, {"size": "-1"}, {"size": "3"}]}}}, "outputs": {"num_detections:0": {"name": "num_detections:0", "dtype": "DT_FLOAT", "tensorShape": {"dim": [{"size": "-1"}]}}, "raw_detection_scores:0": {"name": "raw_detection_scores:0", "dtype": "DT_FLOAT", "tensorShape": {"dim": [{"size": "-1"}, {"size": "-1"}, {"size": "6"}]}}, "detection_boxes:0": {"name": "detection_boxes:0", "dtype": "DT_FLOAT", "tensorShape": {"dim": [{"size": "-1"}, {"size": "100"}, {"size": "4"}]}}, "detection_scores:0": {"name": "detection_scores:0", "dtype": "DT_FLOAT", "tensorShape": {"dim": [{"size": "-1"}, {"size": "100"}]}}, "detection_classes:0": {"name": "detection_classes:0", "dtype": "DT_FLOAT", "tensorShape": {"dim": [{"size": "-1"}, {"size": "100"}]}}, "raw_detection_boxes:0": {"name": "raw_detection_boxes:0", "dtype": "DT_FLOAT", "tensorShape": {"dim": [{"size": "-1"}, {"size": "-1"}, {"size": "4"}]}}, "detection_multiclass_scores:0": {"name": "detection_multiclass_scores:0", "dtype": "DT_FLOAT", "tensorShape": {"dim": [{"size": "-1"}, {"size": "100"}, {"size": "6"}]}}}}}, "modelTopology": {"node": [{"name": "Postprocessor/Slice/begin", "op": "Const", "attr": {"value": {"tensor": {"dtype": "DT_INT32", "tensorShape": {"dim": [{"size": "3"}]}}}, "dtype": {"type": "DT_INT32"}}}, {"name": "Postprocessor/Slice/size", "op": "Const", "attr": {"value": {"tensor": {"dtype": "DT_INT32", "tensorShape": {"dim": [{"size": "3"}]}}}, "dtype": {"type": "DT_INT32"}}}, {"name": "ConstantFolding/Postprocessor/truediv_recip", "op": "Const", "attr": {"value": {"tensor": {"dtype": "DT_FLOAT", "tensorShape": {}}}, "dtype": {"type": "DT_FLOAT"}}}, {"name": "ConstantFolding/Postprocessor/Decode/truediv_recip", "op": "Const", "attr": {"value": {"tensor": {"dtype": "DT_FLOAT", "tensorShape": {}}}, "dtype": {"type": "DT_FLOAT"}}}, {"name": "ConstantFolding/Postprocessor/Decode/truediv_2_recip", "op": "Const", "attr": {"dtype": {"type": "DT_FLOAT"}, "value": {"tensor": {"dtype": "DT_FLOAT", "tensorShape": {}}}}}, {"name": "ConstantFolding/Postprocessor/Decode/truediv_4_recip", "op": "Const", "attr": {"value": {"tensor": {"dtype": "DT_FLOAT", "tensorShape": {}}}, "dtype": {"type": "DT_FLOAT"}}}, {"name": "Postprocessor/ExpandDims", "op": "Const", "attr": {"value": {"tensor": {"dtype": "DT_FLOAT", "tensorShape": {"dim": [{"size": "1"}, {"size": "1917"}, {"size": "4"}]}}}, "dtype": {"type": "DT_FLOAT"}}}, {"name": "Postprocessor/Reshape_1/shape", "op": "Const", "attr": {"value": {"tensor": {"dtype": "DT_INT32", "tensorShape": {"dim": [{"size": "2"}]}}}, "dtype": {"type": "DT_INT32"}}}, {"name": "Postprocessor/Decode/transpose/perm", "op": "Const", "attr": {"value": {"tensor": {"dtype": "DT_INT32", "tensorShape": {"dim": [{"size": "2"}]}}}, "dtype": {"type": "DT_INT32"}}}, {"name": "BoxPredictor_0/BoxEncodingPredictor/weights_quant/FakeQuantWithMinMaxVars", "op": "Const", "attr": {"value": {"tensor": {"dtype": "DT_FLOAT", "tensorShape": {"dim": [{"size": "1"}, {"size": "1"}, {"size": "576"}, {"size": "12"}]}}}, "dtype": {"type": "DT_FLOAT"}}}, {"name": "BoxPredictor_0/BoxEncodingPredictor/biases", "op": "Const", "attr": {"dtype": {"type": "DT_FLOAT"}, "value": {"tensor": {"dtype": "DT_FLOAT", "tensorShape": {"dim": [{"size": "12"}]}}}}}, {"name": "BoxPredictor_0/BoxEncodingPredictor/act_quant/min", "op": "Const", "attr": {"value": {"tensor": {"dtype": "DT_FLOAT", "tensorShape": {}}}, "dtype": {"type": "DT_FLOAT"}}}, {"name": "BoxPredictor_0/BoxEncodingPredictor/act_quant/max", "op": "Const", "attr": {"value": {"tensor": {"dtype": "DT_FLOAT", "tensorShape": {}}}, "dtype": {"type": "DT_FLOAT"}}}, {"name": "BoxPredictor_1/BoxEncodingPredictor/weights_quant/FakeQuantWithMinMaxVars", "op": "Const", "attr": {"value": {"tensor": {"dtype": "DT_FLOAT", "tensorShape": {"dim": [{"size": "1"}, {"size": "1"}, {"size": "1280"}, {"size": "24"}]}}}, "dtype": {"type": "DT_FLOAT"}}}, {"name": "BoxPredictor_1/BoxEncodingPredictor/biases", "op": "Const", "attr": {"value": {"tensor": {"dtype": "DT_FLOAT", "tensorShape": {"dim": [{"size": "24"}]}}}, "dtype": {"type": "DT_FLOAT"}}}, {"name": "BoxPredictor_1/BoxEncodingPredictor/act_quant/min", "op": "Const", "attr": {"value": {"tensor": {"dtype": "DT_FLOAT", "tensorShape": {}}}, "dtype": {"type": "DT_FLOAT"}}}, {"name": "BoxPredictor_1/BoxEncodingPredictor/act_quant/max", "op": "Const", "attr": {"value": {"tensor": {"dtype": "DT_FLOAT", "tensorShape": {}}}, "dtype": {"type": "DT_FLOAT"}}}, {"name": "BoxPredictor_2/BoxEncodingPredictor/weights_quant/FakeQuantWithMinMaxVars", "op": "Const", "attr": {"value": {"tensor": {"dtype": "DT_FLOAT", "tensorShape": {"dim": [{"size": "1"}, {"size": "1"}, {"size": "512"}, {"size": "24"}]}}}, "dtype": {"type": "DT_FLOAT"}}}, {"name": "BoxPredictor_2/BoxEncodingPredictor/biases", "op": "Const", "attr": {"value": {"tensor": {"dtype": "DT_FLOAT", "tensorShape": {"dim": [{"size": "24"}]}}}, "dtype": {"type": "DT_FLOAT"}}}, {"name": "BoxPredictor_2/BoxEncodingPredictor/act_quant/min", "op": "Const", "attr": {"value": {"tensor": {"dtype": "DT_FLOAT", "tensorShape": {}}}, "dtype": {"type": "DT_FLOAT"}}}, {"name": "BoxPredictor_2/BoxEncodingPredictor/act_quant/max", "op": "Const", "attr": {"value": {"tensor": {"dtype": "DT_FLOAT", "tensorShape": {}}}, "dtype": {"type": "DT_FLOAT"}}}, {"name": "BoxPredictor_3/BoxEncodingPredictor/weights_quant/FakeQuantWithMinMaxVars", "op": "Const", "attr": {"value": {"tensor": {"dtype": "DT_FLOAT", "tensorShape": {"dim": [{"size": "1"}, {"size": "1"}, {"size": "256"}, {"size": "24"}]}}}, "dtype": {"type": "DT_FLOAT"}}}, {"name": "BoxPredictor_3/BoxEncodingPredictor/biases", "op": "Const", "attr": {"dtype": {"type": "DT_FLOAT"}, "value": {"tensor": {"dtype": "DT_FLOAT", "tensorShape": {"dim": [{"size": "24"}]}}}}}, {"name": "BoxPredictor_3/BoxEncodingPredictor/act_quant/min", "op": "Const", "attr": {"value": {"tensor": {"dtype": "DT_FLOAT", "tensorShape": {}}}, "dtype": {"type": "DT_FLOAT"}}}, {"name": "BoxPredictor_3/BoxEncodingPredictor/act_quant/max", "op": "Const", "attr": {"value": {"tensor": {"dtype": "DT_FLOAT", "tensorShape": {}}}, "dtype": {"type": "DT_FLOAT"}}}, {"name": "BoxPredictor_4/BoxEncodingPredictor/weights_quant/FakeQuantWithMinMaxVars", "op": "Const", "attr": {"value": {"tensor": {"dtype": "DT_FLOAT", "tensorShape": {"dim": [{"size": "1"}, {"size": "1"}, {"size": "256"}, {"size": "24"}]}}}, "dtype": {"type": "DT_FLOAT"}}}, {"name": "BoxPredictor_4/BoxEncodingPredictor/biases", "op": "Const", "attr": {"value": {"tensor": {"dtype": "DT_FLOAT", "tensorShape": {"dim": [{"size": "24"}]}}}, "dtype": {"type": "DT_FLOAT"}}}, {"name": "BoxPredictor_4/BoxEncodingPredictor/act_quant/min", "op": "Const", "attr": {"value": {"tensor": {"dtype": "DT_FLOAT", "tensorShape": {}}}, "dtype": {"type": "DT_FLOAT"}}}, {"name": "BoxPredictor_4/BoxEncodingPredictor/act_quant/max", "op": "Const", "attr": {"value": {"tensor": {"dtype": "DT_FLOAT", "tensorShape": {}}}, "dtype": {"type": "DT_FLOAT"}}}, {"name": "BoxPredictor_5/BoxEncodingPredictor/weights_quant/FakeQuantWithMinMaxVars", "op": "Const", "attr": {"value": {"tensor": {"dtype": "DT_FLOAT", "tensorShape": {"dim": [{"size": "1"}, {"size": "1"}, {"size": "128"}, {"size": "24"}]}}}, "dtype": {"type": "DT_FLOAT"}}}, {"name": "BoxPredictor_5/BoxEncodingPredictor/biases", "op": "Const", "attr": {"value": {"tensor": {"dtype": "DT_FLOAT", "tensorShape": {"dim": [{"size": "24"}]}}}, "dtype": {"type": "DT_FLOAT"}}}, {"name": "BoxPredictor_5/BoxEncodingPredictor/act_quant/min", "op": "Const", "attr": {"value": {"tensor": {"dtype": "DT_FLOAT", "tensorShape": {}}}, "dtype": {"type": "DT_FLOAT"}}}, {"name": "BoxPredictor_5/BoxEncodingPredictor/act_quant/max", "op": "Const", "attr": {"value": {"tensor": {"dtype": "DT_FLOAT", "tensorShape": {}}}, "dtype": {"type": "DT_FLOAT"}}}, {"name": "Postprocessor/BatchMultiClassNonMaxSuppression/strided_slice_1/stack_1", "op": "Const", "attr": {"value": {"tensor": {"dtype": "DT_INT32", "tensorShape": {"dim": [{"size": "1"}]}}}, "dtype": {"type": "DT_INT32"}}}, {"name": "BoxPredictor_0/Reshape/shape/3", "op": "Const", "attr": {"dtype": {"type": "DT_INT32"}, "value": {"tensor": {"dtype": "DT_INT32", "tensorShape": {}}}}}, {"name": "Postprocessor/ExpandDims_1/dim", "op": "Const", "attr": {"value": {"tensor": {"dtype": "DT_INT32", "tensorShape": {}}}, "dtype": {"type": "DT_INT32"}}}, {"name": "BoxPredictor_0/ClassPredictor/weights_quant/FakeQuantWithMinMaxVars", "op": "Const", "attr": {"value": {"tensor": {"dtype": "DT_FLOAT", "tensorShape": {"dim": [{"size": "1"}, {"size": "1"}, {"size": "576"}, {"size": "18"}]}}}, "dtype": {"type": "DT_FLOAT"}}}, {"name": "BoxPredictor_0/ClassPredictor/biases", "op": "Const", "attr": {"value": {"tensor": {"dtype": "DT_FLOAT", "tensorShape": {"dim": [{"size": "18"}]}}}, "dtype": {"type": "DT_FLOAT"}}}, {"name": "BoxPredictor_0/ClassPredictor/act_quant/min", "op": "Const", "attr": {"value": {"tensor": {"dtype": "DT_FLOAT", "tensorShape": {}}}, "dtype": {"type": "DT_FLOAT"}}}, {"name": "BoxPredictor_0/ClassPredictor/act_quant/max", "op": "Const", "attr": {"value": {"tensor": {"dtype": "DT_FLOAT", "tensorShape": {}}}, "dtype": {"type": "DT_FLOAT"}}}, {"name": "BoxPredictor_1/ClassPredictor/weights_quant/FakeQuantWithMinMaxVars", "op": "Const", "attr": {"value": {"tensor": {"dtype": "DT_FLOAT", "tensorShape": {"dim": [{"size": "1"}, {"size": "1"}, {"size": "1280"}, {"size": "36"}]}}}, "dtype": {"type": "DT_FLOAT"}}}, {"name": "BoxPredictor_1/ClassPredictor/biases", "op": "Const", "attr": {"value": {"tensor": {"dtype": "DT_FLOAT", "tensorShape": {"dim": [{"size": "36"}]}}}, "dtype": {"type": "DT_FLOAT"}}}, {"name": "BoxPredictor_1/ClassPredictor/act_quant/min", "op": "Const", "attr": {"dtype": {"type": "DT_FLOAT"}, "value": {"tensor": {"dtype": "DT_FLOAT", "tensorShape": {}}}}}, {"name": "BoxPredictor_1/ClassPredictor/act_quant/max", "op": "Const", "attr": {"value": {"tensor": {"dtype": "DT_FLOAT", "tensorShape": {}}}, "dtype": {"type": "DT_FLOAT"}}}, {"name": "BoxPredictor_2/ClassPredictor/weights_quant/FakeQuantWithMinMaxVars", "op": "Const", "attr": {"value": {"tensor": {"dtype": "DT_FLOAT", "tensorShape": {"dim": [{"size": "1"}, {"size": "1"}, {"size": "512"}, {"size": "36"}]}}}, "dtype": {"type": "DT_FLOAT"}}}, {"name": "BoxPredictor_2/ClassPredictor/biases", "op": "Const", "attr": {"value": {"tensor": {"dtype": "DT_FLOAT", "tensorShape": {"dim": [{"size": "36"}]}}}, "dtype": {"type": "DT_FLOAT"}}}, {"name": "BoxPredictor_2/ClassPredictor/act_quant/min", "op": "Const", "attr": {"dtype": {"type": "DT_FLOAT"}, "value": {"tensor": {"dtype": "DT_FLOAT", "tensorShape": {}}}}}, {"name": "BoxPredictor_2/ClassPredictor/act_quant/max", "op": "Const", "attr": {"value": {"tensor": {"dtype": "DT_FLOAT", "tensorShape": {}}}, "dtype": {"type": "DT_FLOAT"}}}, {"name": "BoxPredictor_3/ClassPredictor/weights_quant/FakeQuantWithMinMaxVars", "op": "Const", "attr": {"value": {"tensor": {"dtype": "DT_FLOAT", "tensorShape": {"dim": [{"size": "1"}, {"size": "1"}, {"size": "256"}, {"size": "36"}]}}}, "dtype": {"type": "DT_FLOAT"}}}, {"name": "BoxPredictor_3/ClassPredictor/biases", "op": "Const", "attr": {"value": {"tensor": {"dtype": "DT_FLOAT", "tensorShape": {"dim": [{"size": "36"}]}}}, "dtype": {"type": "DT_FLOAT"}}}, {"name": "BoxPredictor_3/ClassPredictor/act_quant/min", "op": "Const", "attr": {"value": {"tensor": {"dtype": "DT_FLOAT", "tensorShape": {}}}, "dtype": {"type": "DT_FLOAT"}}}, {"name": "BoxPredictor_3/ClassPredictor/act_quant/max", "op": "Const", "attr": {"value": {"tensor": {"dtype": "DT_FLOAT", "tensorShape": {}}}, "dtype": {"type": "DT_FLOAT"}}}, {"name": "BoxPredictor_4/ClassPredictor/weights_quant/FakeQuantWithMinMaxVars", "op": "Const", "attr": {"value": {"tensor": {"dtype": "DT_FLOAT", "tensorShape": {"dim": [{"size": "1"}, {"size": "1"}, {"size": "256"}, {"size": "36"}]}}}, "dtype": {"type": "DT_FLOAT"}}}, {"name": "BoxPredictor_4/ClassPredictor/biases", "op": "Const", "attr": {"value": {"tensor": {"dtype": "DT_FLOAT", "tensorShape": {"dim": [{"size": "36"}]}}}, "dtype": {"type": "DT_FLOAT"}}}, {"name": "BoxPredictor_4/ClassPredictor/act_quant/min", "op": "Const", "attr": {"value": {"tensor": {"dtype": "DT_FLOAT", "tensorShape": {}}}, "dtype": {"type": "DT_FLOAT"}}}, {"name": "BoxPredictor_4/ClassPredictor/act_quant/max", "op": "Const", "attr": {"value": {"tensor": {"dtype": "DT_FLOAT", "tensorShape": {}}}, "dtype": {"type": "DT_FLOAT"}}}, {"name": "BoxPredictor_5/ClassPredictor/weights_quant/FakeQuantWithMinMaxVars", "op": "Const", "attr": {"value": {"tensor": {"dtype": "DT_FLOAT", "tensorShape": {"dim": [{"size": "1"}, {"size": "1"}, {"size": "128"}, {"size": "36"}]}}}, "dtype": {"type": "DT_FLOAT"}}}, {"name": "BoxPredictor_5/ClassPredictor/biases", "op": "Const", "attr": {"dtype": {"type": "DT_FLOAT"}, "value": {"tensor": {"dtype": "DT_FLOAT", "tensorShape": {"dim": [{"size": "36"}]}}}}}, {"name": "BoxPredictor_5/ClassPredictor/act_quant/min", "op": "Const", "attr": {"value": {"tensor": {"dtype": "DT_FLOAT", "tensorShape": {}}}, "dtype": {"type": "DT_FLOAT"}}}, {"name": "BoxPredictor_5/ClassPredictor/act_quant/max", "op": "Const", "attr": {"value": {"tensor": {"dtype": "DT_FLOAT", "tensorShape": {}}}, "dtype": {"type": "DT_FLOAT"}}}, {"name": "FeatureExtractor/MobilenetV2/layer_19_2_Conv2d_5_3x3_s2_128/BatchNorm_Fold/bias", "op": "Const", "attr": {"value": {"tensor": {"dtype": "DT_FLOAT", "tensorShape": {"dim": [{"size": "128"}]}}}, "dtype": {"type": "DT_FLOAT"}}}, {"name": "FeatureExtractor/MobilenetV2/layer_19_1_Conv2d_5_1x1_64/BatchNorm_Fold/bias", "op": "Const", "attr": {"value": {"tensor": {"dtype": "DT_FLOAT", "tensorShape": {"dim": [{"size": "64"}]}}}, "dtype": {"type": "DT_FLOAT"}}}, {"name": "FeatureExtractor/MobilenetV2/layer_19_2_Conv2d_4_3x3_s2_256/BatchNorm_Fold/bias", "op": "Const", "attr": {"value": {"tensor": {"dtype": "DT_FLOAT", "tensorShape": {"dim": [{"size": "256"}]}}}, "dtype": {"type": "DT_FLOAT"}}}, {"name": "FeatureExtractor/MobilenetV2/layer_19_1_Conv2d_4_1x1_128/BatchNorm_Fold/bias", "op": "Const", "attr": {"value": {"tensor": {"dtype": "DT_FLOAT", "tensorShape": {"dim": [{"size": "128"}]}}}, "dtype": {"type": "DT_FLOAT"}}}, {"name": "FeatureExtractor/MobilenetV2/layer_19_2_Conv2d_3_3x3_s2_256/BatchNorm_Fold/bias", "op": "Const", "attr": {"value": {"tensor": {"dtype": "DT_FLOAT", "tensorShape": {"dim": [{"size": "256"}]}}}, "dtype": {"type": "DT_FLOAT"}}}, {"name": "FeatureExtractor/MobilenetV2/layer_19_1_Conv2d_3_1x1_128/BatchNorm_Fold/bias", "op": "Const", "attr": {"value": {"tensor": {"dtype": "DT_FLOAT", "tensorShape": {"dim": [{"size": "128"}]}}}, "dtype": {"type": "DT_FLOAT"}}}, {"name": "FeatureExtractor/MobilenetV2/layer_19_2_Conv2d_2_3x3_s2_512/BatchNorm_Fold/bias", "op": "Const", "attr": {"value": {"tensor": {"dtype": "DT_FLOAT", "tensorShape": {"dim": [{"size": "512"}]}}}, "dtype": {"type": "DT_FLOAT"}}}, {"name": "FeatureExtractor/MobilenetV2/layer_19_1_Conv2d_2_1x1_256/BatchNorm_Fold/bias", "op": "Const", "attr": {"value": {"tensor": {"dtype": "DT_FLOAT", "tensorShape": {"dim": [{"size": "256"}]}}}, "dtype": {"type": "DT_FLOAT"}}}, {"name": "FeatureExtractor/MobilenetV2/Conv_1/BatchNorm_Fold/bias", "op": "Const", "attr": {"value": {"tensor": {"dtype": "DT_FLOAT", "tensorShape": {"dim": [{"size": "1280"}]}}}, "dtype": {"type": "DT_FLOAT"}}}, {"name": "FeatureExtractor/MobilenetV2/expanded_conv_16/project/BatchNorm_Fold/bias", "op": "Const", "attr": {"value": {"tensor": {"dtype": "DT_FLOAT", "tensorShape": {"dim": [{"size": "320"}]}}}, "dtype": {"type": "DT_FLOAT"}}}, {"name": "FeatureExtractor/MobilenetV2/expanded_conv_16/depthwise/BatchNorm_Fold/bias", "op": "Const", "attr": {"value": {"tensor": {"dtype": "DT_FLOAT", "tensorShape": {"dim": [{"size": "960"}]}}}, "dtype": {"type": "DT_FLOAT"}}}, {"name": "FeatureExtractor/MobilenetV2/expanded_conv_16/expand/BatchNorm_Fold/bias", "op": "Const", "attr": {"value": {"tensor": {"dtype": "DT_FLOAT", "tensorShape": {"dim": [{"size": "960"}]}}}, "dtype": {"type": "DT_FLOAT"}}}, {"name": "FeatureExtractor/MobilenetV2/expanded_conv_15/project/BatchNorm_Fold/bias", "op": "Const", "attr": {"dtype": {"type": "DT_FLOAT"}, "value": {"tensor": {"dtype": "DT_FLOAT", "tensorShape": {"dim": [{"size": "160"}]}}}}}, {"name": "FeatureExtractor/MobilenetV2/expanded_conv_15/depthwise/BatchNorm_Fold/bias", "op": "Const", "attr": {"value": {"tensor": {"dtype": "DT_FLOAT", "tensorShape": {"dim": [{"size": "960"}]}}}, "dtype": {"type": "DT_FLOAT"}}}, {"name": "FeatureExtractor/MobilenetV2/expanded_conv_15/expand/BatchNorm_Fold/bias", "op": "Const", "attr": {"value": {"tensor": {"dtype": "DT_FLOAT", "tensorShape": {"dim": [{"size": "960"}]}}}, "dtype": {"type": "DT_FLOAT"}}}, {"name": "FeatureExtractor/MobilenetV2/expanded_conv_14/project/BatchNorm_Fold/bias", "op": "Const", "attr": {"value": {"tensor": {"dtype": "DT_FLOAT", "tensorShape": {"dim": [{"size": "160"}]}}}, "dtype": {"type": "DT_FLOAT"}}}, {"name": "FeatureExtractor/MobilenetV2/expanded_conv_14/depthwise/BatchNorm_Fold/bias", "op": "Const", "attr": {"dtype": {"type": "DT_FLOAT"}, "value": {"tensor": {"dtype": "DT_FLOAT", "tensorShape": {"dim": [{"size": "960"}]}}}}}, {"name": "FeatureExtractor/MobilenetV2/expanded_conv_14/expand/BatchNorm_Fold/bias", "op": "Const", "attr": {"value": {"tensor": {"dtype": "DT_FLOAT", "tensorShape": {"dim": [{"size": "960"}]}}}, "dtype": {"type": "DT_FLOAT"}}}, {"name": "FeatureExtractor/MobilenetV2/expanded_conv_13/project/BatchNorm_Fold/bias", "op": "Const", "attr": {"value": {"tensor": {"dtype": "DT_FLOAT", "tensorShape": {"dim": [{"size": "160"}]}}}, "dtype": {"type": "DT_FLOAT"}}}, {"name": "FeatureExtractor/MobilenetV2/expanded_conv_13/depthwise/BatchNorm_Fold/bias", "op": "Const", "attr": {"value": {"tensor": {"dtype": "DT_FLOAT", "tensorShape": {"dim": [{"size": "576"}]}}}, "dtype": {"type": "DT_FLOAT"}}}, {"name": "FeatureExtractor/MobilenetV2/expanded_conv_13/expand/BatchNorm_Fold/bias", "op": "Const", "attr": {"value": {"tensor": {"dtype": "DT_FLOAT", "tensorShape": {"dim": [{"size": "576"}]}}}, "dtype": {"type": "DT_FLOAT"}}}, {"name": "FeatureExtractor/MobilenetV2/expanded_conv_12/project/BatchNorm_Fold/bias", "op": "Const", "attr": {"value": {"tensor": {"dtype": "DT_FLOAT", "tensorShape": {"dim": [{"size": "96"}]}}}, "dtype": {"type": "DT_FLOAT"}}}, {"name": "FeatureExtractor/MobilenetV2/expanded_conv_12/depthwise/BatchNorm_Fold/bias", "op": "Const", "attr": {"dtype": {"type": "DT_FLOAT"}, "value": {"tensor": {"dtype": "DT_FLOAT", "tensorShape": {"dim": [{"size": "576"}]}}}}}, {"name": "FeatureExtractor/MobilenetV2/expanded_conv_12/expand/BatchNorm_Fold/bias", "op": "Const", "attr": {"value": {"tensor": {"dtype": "DT_FLOAT", "tensorShape": {"dim": [{"size": "576"}]}}}, "dtype": {"type": "DT_FLOAT"}}}, {"name": "FeatureExtractor/MobilenetV2/expanded_conv_11/project/BatchNorm_Fold/bias", "op": "Const", "attr": {"value": {"tensor": {"dtype": "DT_FLOAT", "tensorShape": {"dim": [{"size": "96"}]}}}, "dtype": {"type": "DT_FLOAT"}}}, {"name": "FeatureExtractor/MobilenetV2/expanded_conv_11/depthwise/BatchNorm_Fold/bias", "op": "Const", "attr": {"value": {"tensor": {"dtype": "DT_FLOAT", "tensorShape": {"dim": [{"size": "576"}]}}}, "dtype": {"type": "DT_FLOAT"}}}, {"name": "FeatureExtractor/MobilenetV2/expanded_conv_11/expand/BatchNorm_Fold/bias", "op": "Const", "attr": {"value": {"tensor": {"dtype": "DT_FLOAT", "tensorShape": {"dim": [{"size": "576"}]}}}, "dtype": {"type": "DT_FLOAT"}}}, {"name": "FeatureExtractor/MobilenetV2/expanded_conv_10/project/BatchNorm_Fold/bias", "op": "Const", "attr": {"dtype": {"type": "DT_FLOAT"}, "value": {"tensor": {"dtype": "DT_FLOAT", "tensorShape": {"dim": [{"size": "96"}]}}}}}, {"name": "FeatureExtractor/MobilenetV2/expanded_conv_10/depthwise/BatchNorm_Fold/bias", "op": "Const", "attr": {"value": {"tensor": {"dtype": "DT_FLOAT", "tensorShape": {"dim": [{"size": "384"}]}}}, "dtype": {"type": "DT_FLOAT"}}}, {"name": "FeatureExtractor/MobilenetV2/expanded_conv_10/expand/BatchNorm_Fold/bias", "op": "Const", "attr": {"value": {"tensor": {"dtype": "DT_FLOAT", "tensorShape": {"dim": [{"size": "384"}]}}}, "dtype": {"type": "DT_FLOAT"}}}, {"name": "FeatureExtractor/MobilenetV2/expanded_conv_9/project/BatchNorm_Fold/bias", "op": "Const", "attr": {"value": {"tensor": {"dtype": "DT_FLOAT", "tensorShape": {"dim": [{"size": "64"}]}}}, "dtype": {"type": "DT_FLOAT"}}}, {"name": "FeatureExtractor/MobilenetV2/expanded_conv_9/depthwise/BatchNorm_Fold/bias", "op": "Const", "attr": {"value": {"tensor": {"dtype": "DT_FLOAT", "tensorShape": {"dim": [{"size": "384"}]}}}, "dtype": {"type": "DT_FLOAT"}}}, {"name": "FeatureExtractor/MobilenetV2/expanded_conv_9/expand/BatchNorm_Fold/bias", "op": "Const", "attr": {"value": {"tensor": {"dtype": "DT_FLOAT", "tensorShape": {"dim": [{"size": "384"}]}}}, "dtype": {"type": "DT_FLOAT"}}}, {"name": "FeatureExtractor/MobilenetV2/expanded_conv_8/project/BatchNorm_Fold/bias", "op": "Const", "attr": {"value": {"tensor": {"dtype": "DT_FLOAT", "tensorShape": {"dim": [{"size": "64"}]}}}, "dtype": {"type": "DT_FLOAT"}}}, {"name": "FeatureExtractor/MobilenetV2/expanded_conv_8/depthwise/BatchNorm_Fold/bias", "op": "Const", "attr": {"value": {"tensor": {"dtype": "DT_FLOAT", "tensorShape": {"dim": [{"size": "384"}]}}}, "dtype": {"type": "DT_FLOAT"}}}, {"name": "FeatureExtractor/MobilenetV2/expanded_conv_8/expand/BatchNorm_Fold/bias", "op": "Const", "attr": {"value": {"tensor": {"dtype": "DT_FLOAT", "tensorShape": {"dim": [{"size": "384"}]}}}, "dtype": {"type": "DT_FLOAT"}}}, {"name": "FeatureExtractor/MobilenetV2/expanded_conv_7/project/BatchNorm_Fold/bias", "op": "Const", "attr": {"value": {"tensor": {"dtype": "DT_FLOAT", "tensorShape": {"dim": [{"size": "64"}]}}}, "dtype": {"type": "DT_FLOAT"}}}, {"name": "FeatureExtractor/MobilenetV2/expanded_conv_7/depthwise/BatchNorm_Fold/bias", "op": "Const", "attr": {"dtype": {"type": "DT_FLOAT"}, "value": {"tensor": {"dtype": "DT_FLOAT", "tensorShape": {"dim": [{"size": "384"}]}}}}}, {"name": "FeatureExtractor/MobilenetV2/expanded_conv_7/expand/BatchNorm_Fold/bias", "op": "Const", "attr": {"value": {"tensor": {"dtype": "DT_FLOAT", "tensorShape": {"dim": [{"size": "384"}]}}}, "dtype": {"type": "DT_FLOAT"}}}, {"name": "FeatureExtractor/MobilenetV2/expanded_conv_6/project/BatchNorm_Fold/bias", "op": "Const", "attr": {"value": {"tensor": {"dtype": "DT_FLOAT", "tensorShape": {"dim": [{"size": "64"}]}}}, "dtype": {"type": "DT_FLOAT"}}}, {"name": "FeatureExtractor/MobilenetV2/expanded_conv_6/depthwise/BatchNorm_Fold/bias", "op": "Const", "attr": {"dtype": {"type": "DT_FLOAT"}, "value": {"tensor": {"dtype": "DT_FLOAT", "tensorShape": {"dim": [{"size": "192"}]}}}}}, {"name": "FeatureExtractor/MobilenetV2/expanded_conv_6/expand/BatchNorm_Fold/bias", "op": "Const", "attr": {"value": {"tensor": {"dtype": "DT_FLOAT", "tensorShape": {"dim": [{"size": "192"}]}}}, "dtype": {"type": "DT_FLOAT"}}}, {"name": "FeatureExtractor/MobilenetV2/expanded_conv_5/project/BatchNorm_Fold/bias", "op": "Const", "attr": {"value": {"tensor": {"dtype": "DT_FLOAT", "tensorShape": {"dim": [{"size": "32"}]}}}, "dtype": {"type": "DT_FLOAT"}}}, {"name": "FeatureExtractor/MobilenetV2/expanded_conv_5/depthwise/BatchNorm_Fold/bias", "op": "Const", "attr": {"dtype": {"type": "DT_FLOAT"}, "value": {"tensor": {"dtype": "DT_FLOAT", "tensorShape": {"dim": [{"size": "192"}]}}}}}, {"name": "FeatureExtractor/MobilenetV2/expanded_conv_5/expand/BatchNorm_Fold/bias", "op": "Const", "attr": {"value": {"tensor": {"dtype": "DT_FLOAT", "tensorShape": {"dim": [{"size": "192"}]}}}, "dtype": {"type": "DT_FLOAT"}}}, {"name": "FeatureExtractor/MobilenetV2/expanded_conv_4/project/BatchNorm_Fold/bias", "op": "Const", "attr": {"value": {"tensor": {"dtype": "DT_FLOAT", "tensorShape": {"dim": [{"size": "32"}]}}}, "dtype": {"type": "DT_FLOAT"}}}, {"name": "FeatureExtractor/MobilenetV2/expanded_conv_4/depthwise/BatchNorm_Fold/bias", "op": "Const", "attr": {"value": {"tensor": {"dtype": "DT_FLOAT", "tensorShape": {"dim": [{"size": "192"}]}}}, "dtype": {"type": "DT_FLOAT"}}}, {"name": "FeatureExtractor/MobilenetV2/expanded_conv_4/expand/BatchNorm_Fold/bias", "op": "Const", "attr": {"value": {"tensor": {"dtype": "DT_FLOAT", "tensorShape": {"dim": [{"size": "192"}]}}}, "dtype": {"type": "DT_FLOAT"}}}, {"name": "FeatureExtractor/MobilenetV2/expanded_conv_3/project/BatchNorm_Fold/bias", "op": "Const", "attr": {"value": {"tensor": {"dtype": "DT_FLOAT", "tensorShape": {"dim": [{"size": "32"}]}}}, "dtype": {"type": "DT_FLOAT"}}}, {"name": "FeatureExtractor/MobilenetV2/expanded_conv_3/depthwise/BatchNorm_Fold/bias", "op": "Const", "attr": {"value": {"tensor": {"dtype": "DT_FLOAT", "tensorShape": {"dim": [{"size": "144"}]}}}, "dtype": {"type": "DT_FLOAT"}}}, {"name": "FeatureExtractor/MobilenetV2/expanded_conv_3/expand/BatchNorm_Fold/bias", "op": "Const", "attr": {"value": {"tensor": {"dtype": "DT_FLOAT", "tensorShape": {"dim": [{"size": "144"}]}}}, "dtype": {"type": "DT_FLOAT"}}}, {"name": "FeatureExtractor/MobilenetV2/expanded_conv_2/project/BatchNorm_Fold/bias", "op": "Const", "attr": {"value": {"tensor": {"dtype": "DT_FLOAT", "tensorShape": {"dim": [{"size": "24"}]}}}, "dtype": {"type": "DT_FLOAT"}}}, {"name": "FeatureExtractor/MobilenetV2/expanded_conv_2/depthwise/BatchNorm_Fold/bias", "op": "Const", "attr": {"value": {"tensor": {"dtype": "DT_FLOAT", "tensorShape": {"dim": [{"size": "144"}]}}}, "dtype": {"type": "DT_FLOAT"}}}, {"name": "FeatureExtractor/MobilenetV2/expanded_conv_2/expand/BatchNorm_Fold/bias", "op": "Const", "attr": {"value": {"tensor": {"dtype": "DT_FLOAT", "tensorShape": {"dim": [{"size": "144"}]}}}, "dtype": {"type": "DT_FLOAT"}}}, {"name": "FeatureExtractor/MobilenetV2/expanded_conv_1/project/BatchNorm_Fold/bias", "op": "Const", "attr": {"value": {"tensor": {"dtype": "DT_FLOAT", "tensorShape": {"dim": [{"size": "24"}]}}}, "dtype": {"type": "DT_FLOAT"}}}, {"name": "FeatureExtractor/MobilenetV2/expanded_conv_1/depthwise/BatchNorm_Fold/bias", "op": "Const", "attr": {"value": {"tensor": {"dtype": "DT_FLOAT", "tensorShape": {"dim": [{"size": "96"}]}}}, "dtype": {"type": "DT_FLOAT"}}}, {"name": "FeatureExtractor/MobilenetV2/expanded_conv_1/expand/BatchNorm_Fold/bias", "op": "Const", "attr": {"value": {"tensor": {"dtype": "DT_FLOAT", "tensorShape": {"dim": [{"size": "96"}]}}}, "dtype": {"type": "DT_FLOAT"}}}, {"name": "FeatureExtractor/MobilenetV2/expanded_conv/project/BatchNorm_Fold/bias", "op": "Const", "attr": {"dtype": {"type": "DT_FLOAT"}, "value": {"tensor": {"dtype": "DT_FLOAT", "tensorShape": {"dim": [{"size": "16"}]}}}}}, {"name": "FeatureExtractor/MobilenetV2/expanded_conv/depthwise/BatchNorm_Fold/bias", "op": "Const", "attr": {"value": {"tensor": {"dtype": "DT_FLOAT", "tensorShape": {"dim": [{"size": "32"}]}}}, "dtype": {"type": "DT_FLOAT"}}}, {"name": "FeatureExtractor/MobilenetV2/Conv/BatchNorm_Fold/bias", "op": "Const", "attr": {"value": {"tensor": {"dtype": "DT_FLOAT", "tensorShape": {"dim": [{"size": "32"}]}}}, "dtype": {"type": "DT_FLOAT"}}}, {"name": "Postprocessor/BatchMultiClassNonMaxSuppression/map/TensorArrayStack/range/start", "op": "Const", "attr": {"value": {"tensor": {"dtype": "DT_INT32", "tensorShape": {}}}, "dtype": {"type": "DT_INT32"}}}, {"name": "image_tensor", "op": "Placeholder", "attr": {"dtype": {"type": "DT_UINT8"}, "shape": {"shape": {"dim": [{"size": "-1"}, {"size": "-1"}, {"size": "-1"}, {"size": "3"}]}}}}, {"name": "Preprocessor/mul/x", "op": "Const", "attr": {"value": {"tensor": {"dtype": "DT_FLOAT", "tensorShape": {}}}, "dtype": {"type": "DT_FLOAT"}}}, {"name": "add/y", "op": "Const", "attr": {"value": {"tensor": {"dtype": "DT_FLOAT", "tensorShape": {}}}, "dtype": {"type": "DT_FLOAT"}}}, {"name": "FeatureExtractor/MobilenetV2/Conv/weights_quant/FakeQuantWithMinMaxVars", "op": "Const", "attr": {"dtype": {"type": "DT_FLOAT"}, "value": {"tensor": {"dtype": "DT_FLOAT", "tensorShape": {"dim": [{"size": "3"}, {"size": "3"}, {"size": "3"}, {"size": "32"}]}}}}}, {"name": "FeatureExtractor/MobilenetV2/expanded_conv/depthwise/weights_quant/FakeQuantWithMinMaxVars", "op": "Const", "attr": {"value": {"tensor": {"dtype": "DT_FLOAT", "tensorShape": {"dim": [{"size": "3"}, {"size": "3"}, {"size": "32"}, {"size": "1"}]}}}, "dtype": {"type": "DT_FLOAT"}}}, {"name": "FeatureExtractor/MobilenetV2/expanded_conv/project/weights_quant/FakeQuantWithMinMaxVars", "op": "Const", "attr": {"value": {"tensor": {"dtype": "DT_FLOAT", "tensorShape": {"dim": [{"size": "1"}, {"size": "1"}, {"size": "32"}, {"size": "16"}]}}}, "dtype": {"type": "DT_FLOAT"}}}, {"name": "FeatureExtractor/MobilenetV2/expanded_conv/project/act_quant/min", "op": "Const", "attr": {"value": {"tensor": {"dtype": "DT_FLOAT", "tensorShape": {}}}, "dtype": {"type": "DT_FLOAT"}}}, {"name": "FeatureExtractor/MobilenetV2/expanded_conv/project/act_quant/max", "op": "Const", "attr": {"dtype": {"type": "DT_FLOAT"}, "value": {"tensor": {"dtype": "DT_FLOAT", "tensorShape": {}}}}}, {"name": "FeatureExtractor/MobilenetV2/expanded_conv_1/expand/weights_quant/FakeQuantWithMinMaxVars", "op": "Const", "attr": {"value": {"tensor": {"dtype": "DT_FLOAT", "tensorShape": {"dim": [{"size": "1"}, {"size": "1"}, {"size": "16"}, {"size": "96"}]}}}, "dtype": {"type": "DT_FLOAT"}}}, {"name": "FeatureExtractor/MobilenetV2/expanded_conv_1/depthwise/weights_quant/FakeQuantWithMinMaxVars", "op": "Const", "attr": {"value": {"tensor": {"dtype": "DT_FLOAT", "tensorShape": {"dim": [{"size": "3"}, {"size": "3"}, {"size": "96"}, {"size": "1"}]}}}, "dtype": {"type": "DT_FLOAT"}}}, {"name": "FeatureExtractor/MobilenetV2/expanded_conv_1/project/weights_quant/FakeQuantWithMinMaxVars", "op": "Const", "attr": {"value": {"tensor": {"dtype": "DT_FLOAT", "tensorShape": {"dim": [{"size": "1"}, {"size": "1"}, {"size": "96"}, {"size": "24"}]}}}, "dtype": {"type": "DT_FLOAT"}}}, {"name": "FeatureExtractor/MobilenetV2/expanded_conv_1/project/act_quant/min", "op": "Const", "attr": {"value": {"tensor": {"dtype": "DT_FLOAT", "tensorShape": {}}}, "dtype": {"type": "DT_FLOAT"}}}, {"name": "FeatureExtractor/MobilenetV2/expanded_conv_1/project/act_quant/max", "op": "Const", "attr": {"dtype": {"type": "DT_FLOAT"}, "value": {"tensor": {"dtype": "DT_FLOAT", "tensorShape": {}}}}}, {"name": "FeatureExtractor/MobilenetV2/expanded_conv_2/expand/weights_quant/FakeQuantWithMinMaxVars", "op": "Const", "attr": {"value": {"tensor": {"dtype": "DT_FLOAT", "tensorShape": {"dim": [{"size": "1"}, {"size": "1"}, {"size": "24"}, {"size": "144"}]}}}, "dtype": {"type": "DT_FLOAT"}}}, {"name": "FeatureExtractor/MobilenetV2/expanded_conv_2/depthwise/weights_quant/FakeQuantWithMinMaxVars", "op": "Const", "attr": {"value": {"tensor": {"dtype": "DT_FLOAT", "tensorShape": {"dim": [{"size": "3"}, {"size": "3"}, {"size": "144"}, {"size": "1"}]}}}, "dtype": {"type": "DT_FLOAT"}}}, {"name": "FeatureExtractor/MobilenetV2/expanded_conv_2/project/weights_quant/FakeQuantWithMinMaxVars", "op": "Const", "attr": {"value": {"tensor": {"dtype": "DT_FLOAT", "tensorShape": {"dim": [{"size": "1"}, {"size": "1"}, {"size": "144"}, {"size": "24"}]}}}, "dtype": {"type": "DT_FLOAT"}}}, {"name": "FeatureExtractor/MobilenetV2/expanded_conv_2/project/act_quant/min", "op": "Const", "attr": {"value": {"tensor": {"dtype": "DT_FLOAT", "tensorShape": {}}}, "dtype": {"type": "DT_FLOAT"}}}, {"name": "FeatureExtractor/MobilenetV2/expanded_conv_2/project/act_quant/max", "op": "Const", "attr": {"value": {"tensor": {"dtype": "DT_FLOAT", "tensorShape": {}}}, "dtype": {"type": "DT_FLOAT"}}}, {"name": "FeatureExtractor/MobilenetV2/expanded_conv_2/post_activation_bypass_quant/min", "op": "Const", "attr": {"dtype": {"type": "DT_FLOAT"}, "value": {"tensor": {"dtype": "DT_FLOAT", "tensorShape": {}}}}}, {"name": "FeatureExtractor/MobilenetV2/expanded_conv_2/post_activation_bypass_quant/max", "op": "Const", "attr": {"value": {"tensor": {"dtype": "DT_FLOAT", "tensorShape": {}}}, "dtype": {"type": "DT_FLOAT"}}}, {"name": "FeatureExtractor/MobilenetV2/expanded_conv_3/expand/weights_quant/FakeQuantWithMinMaxVars", "op": "Const", "attr": {"value": {"tensor": {"dtype": "DT_FLOAT", "tensorShape": {"dim": [{"size": "1"}, {"size": "1"}, {"size": "24"}, {"size": "144"}]}}}, "dtype": {"type": "DT_FLOAT"}}}, {"name": "FeatureExtractor/MobilenetV2/expanded_conv_3/depthwise/weights_quant/FakeQuantWithMinMaxVars", "op": "Const", "attr": {"value": {"tensor": {"dtype": "DT_FLOAT", "tensorShape": {"dim": [{"size": "3"}, {"size": "3"}, {"size": "144"}, {"size": "1"}]}}}, "dtype": {"type": "DT_FLOAT"}}}, {"name": "FeatureExtractor/MobilenetV2/expanded_conv_3/project/weights_quant/FakeQuantWithMinMaxVars", "op": "Const", "attr": {"value": {"tensor": {"dtype": "DT_FLOAT", "tensorShape": {"dim": [{"size": "1"}, {"size": "1"}, {"size": "144"}, {"size": "32"}]}}}, "dtype": {"type": "DT_FLOAT"}}}, {"name": "FeatureExtractor/MobilenetV2/expanded_conv_3/project/act_quant/min", "op": "Const", "attr": {"value": {"tensor": {"dtype": "DT_FLOAT", "tensorShape": {}}}, "dtype": {"type": "DT_FLOAT"}}}, {"name": "FeatureExtractor/MobilenetV2/expanded_conv_3/project/act_quant/max", "op": "Const", "attr": {"value": {"tensor": {"dtype": "DT_FLOAT", "tensorShape": {}}}, "dtype": {"type": "DT_FLOAT"}}}, {"name": "FeatureExtractor/MobilenetV2/expanded_conv_4/expand/weights_quant/FakeQuantWithMinMaxVars", "op": "Const", "attr": {"value": {"tensor": {"dtype": "DT_FLOAT", "tensorShape": {"dim": [{"size": "1"}, {"size": "1"}, {"size": "32"}, {"size": "192"}]}}}, "dtype": {"type": "DT_FLOAT"}}}, {"name": "FeatureExtractor/MobilenetV2/expanded_conv_4/depthwise/weights_quant/FakeQuantWithMinMaxVars", "op": "Const", "attr": {"dtype": {"type": "DT_FLOAT"}, "value": {"tensor": {"dtype": "DT_FLOAT", "tensorShape": {"dim": [{"size": "3"}, {"size": "3"}, {"size": "192"}, {"size": "1"}]}}}}}, {"name": "FeatureExtractor/MobilenetV2/expanded_conv_4/project/weights_quant/FakeQuantWithMinMaxVars", "op": "Const", "attr": {"value": {"tensor": {"dtype": "DT_FLOAT", "tensorShape": {"dim": [{"size": "1"}, {"size": "1"}, {"size": "192"}, {"size": "32"}]}}}, "dtype": {"type": "DT_FLOAT"}}}, {"name": "FeatureExtractor/MobilenetV2/expanded_conv_4/project/act_quant/min", "op": "Const", "attr": {"value": {"tensor": {"dtype": "DT_FLOAT", "tensorShape": {}}}, "dtype": {"type": "DT_FLOAT"}}}, {"name": "FeatureExtractor/MobilenetV2/expanded_conv_4/project/act_quant/max", "op": "Const", "attr": {"value": {"tensor": {"dtype": "DT_FLOAT", "tensorShape": {}}}, "dtype": {"type": "DT_FLOAT"}}}, {"name": "FeatureExtractor/MobilenetV2/expanded_conv_4/post_activation_bypass_quant/min", "op": "Const", "attr": {"value": {"tensor": {"dtype": "DT_FLOAT", "tensorShape": {}}}, "dtype": {"type": "DT_FLOAT"}}}, {"name": "FeatureExtractor/MobilenetV2/expanded_conv_4/post_activation_bypass_quant/max", "op": "Const", "attr": {"value": {"tensor": {"dtype": "DT_FLOAT", "tensorShape": {}}}, "dtype": {"type": "DT_FLOAT"}}}, {"name": "FeatureExtractor/MobilenetV2/expanded_conv_5/expand/weights_quant/FakeQuantWithMinMaxVars", "op": "Const", "attr": {"value": {"tensor": {"dtype": "DT_FLOAT", "tensorShape": {"dim": [{"size": "1"}, {"size": "1"}, {"size": "32"}, {"size": "192"}]}}}, "dtype": {"type": "DT_FLOAT"}}}, {"name": "FeatureExtractor/MobilenetV2/expanded_conv_5/depthwise/weights_quant/FakeQuantWithMinMaxVars", "op": "Const", "attr": {"dtype": {"type": "DT_FLOAT"}, "value": {"tensor": {"dtype": "DT_FLOAT", "tensorShape": {"dim": [{"size": "3"}, {"size": "3"}, {"size": "192"}, {"size": "1"}]}}}}}, {"name": "FeatureExtractor/MobilenetV2/expanded_conv_5/project/weights_quant/FakeQuantWithMinMaxVars", "op": "Const", "attr": {"value": {"tensor": {"dtype": "DT_FLOAT", "tensorShape": {"dim": [{"size": "1"}, {"size": "1"}, {"size": "192"}, {"size": "32"}]}}}, "dtype": {"type": "DT_FLOAT"}}}, {"name": "FeatureExtractor/MobilenetV2/expanded_conv_5/project/act_quant/min", "op": "Const", "attr": {"dtype": {"type": "DT_FLOAT"}, "value": {"tensor": {"dtype": "DT_FLOAT", "tensorShape": {}}}}}, {"name": "FeatureExtractor/MobilenetV2/expanded_conv_5/project/act_quant/max", "op": "Const", "attr": {"value": {"tensor": {"dtype": "DT_FLOAT", "tensorShape": {}}}, "dtype": {"type": "DT_FLOAT"}}}, {"name": "FeatureExtractor/MobilenetV2/expanded_conv_5/post_activation_bypass_quant/min", "op": "Const", "attr": {"value": {"tensor": {"dtype": "DT_FLOAT", "tensorShape": {}}}, "dtype": {"type": "DT_FLOAT"}}}, {"name": "FeatureExtractor/MobilenetV2/expanded_conv_5/post_activation_bypass_quant/max", "op": "Const", "attr": {"value": {"tensor": {"dtype": "DT_FLOAT", "tensorShape": {}}}, "dtype": {"type": "DT_FLOAT"}}}, {"name": "FeatureExtractor/MobilenetV2/expanded_conv_6/expand/weights_quant/FakeQuantWithMinMaxVars", "op": "Const", "attr": {"value": {"tensor": {"dtype": "DT_FLOAT", "tensorShape": {"dim": [{"size": "1"}, {"size": "1"}, {"size": "32"}, {"size": "192"}]}}}, "dtype": {"type": "DT_FLOAT"}}}, {"name": "FeatureExtractor/MobilenetV2/expanded_conv_6/depthwise/weights_quant/FakeQuantWithMinMaxVars", "op": "Const", "attr": {"value": {"tensor": {"dtype": "DT_FLOAT", "tensorShape": {"dim": [{"size": "3"}, {"size": "3"}, {"size": "192"}, {"size": "1"}]}}}, "dtype": {"type": "DT_FLOAT"}}}, {"name": "FeatureExtractor/MobilenetV2/expanded_conv_6/project/weights_quant/FakeQuantWithMinMaxVars", "op": "Const", "attr": {"value": {"tensor": {"dtype": "DT_FLOAT", "tensorShape": {"dim": [{"size": "1"}, {"size": "1"}, {"size": "192"}, {"size": "64"}]}}}, "dtype": {"type": "DT_FLOAT"}}}, {"name": "FeatureExtractor/MobilenetV2/expanded_conv_6/project/act_quant/min", "op": "Const", "attr": {"value": {"tensor": {"dtype": "DT_FLOAT", "tensorShape": {}}}, "dtype": {"type": "DT_FLOAT"}}}, {"name": "FeatureExtractor/MobilenetV2/expanded_conv_6/project/act_quant/max", "op": "Const", "attr": {"value": {"tensor": {"dtype": "DT_FLOAT", "tensorShape": {}}}, "dtype": {"type": "DT_FLOAT"}}}, {"name": "FeatureExtractor/MobilenetV2/expanded_conv_7/expand/weights_quant/FakeQuantWithMinMaxVars", "op": "Const", "attr": {"dtype": {"type": "DT_FLOAT"}, "value": {"tensor": {"dtype": "DT_FLOAT", "tensorShape": {"dim": [{"size": "1"}, {"size": "1"}, {"size": "64"}, {"size": "384"}]}}}}}, {"name": "FeatureExtractor/MobilenetV2/expanded_conv_7/depthwise/weights_quant/FakeQuantWithMinMaxVars", "op": "Const", "attr": {"value": {"tensor": {"dtype": "DT_FLOAT", "tensorShape": {"dim": [{"size": "3"}, {"size": "3"}, {"size": "384"}, {"size": "1"}]}}}, "dtype": {"type": "DT_FLOAT"}}}, {"name": "FeatureExtractor/MobilenetV2/expanded_conv_7/project/weights_quant/FakeQuantWithMinMaxVars", "op": "Const", "attr": {"value": {"tensor": {"dtype": "DT_FLOAT", "tensorShape": {"dim": [{"size": "1"}, {"size": "1"}, {"size": "384"}, {"size": "64"}]}}}, "dtype": {"type": "DT_FLOAT"}}}, {"name": "FeatureExtractor/MobilenetV2/expanded_conv_7/project/act_quant/min", "op": "Const", "attr": {"value": {"tensor": {"dtype": "DT_FLOAT", "tensorShape": {}}}, "dtype": {"type": "DT_FLOAT"}}}, {"name": "FeatureExtractor/MobilenetV2/expanded_conv_7/project/act_quant/max", "op": "Const", "attr": {"value": {"tensor": {"dtype": "DT_FLOAT", "tensorShape": {}}}, "dtype": {"type": "DT_FLOAT"}}}, {"name": "FeatureExtractor/MobilenetV2/expanded_conv_7/post_activation_bypass_quant/min", "op": "Const", "attr": {"value": {"tensor": {"dtype": "DT_FLOAT", "tensorShape": {}}}, "dtype": {"type": "DT_FLOAT"}}}, {"name": "FeatureExtractor/MobilenetV2/expanded_conv_7/post_activation_bypass_quant/max", "op": "Const", "attr": {"value": {"tensor": {"dtype": "DT_FLOAT", "tensorShape": {}}}, "dtype": {"type": "DT_FLOAT"}}}, {"name": "FeatureExtractor/MobilenetV2/expanded_conv_8/expand/weights_quant/FakeQuantWithMinMaxVars", "op": "Const", "attr": {"value": {"tensor": {"dtype": "DT_FLOAT", "tensorShape": {"dim": [{"size": "1"}, {"size": "1"}, {"size": "64"}, {"size": "384"}]}}}, "dtype": {"type": "DT_FLOAT"}}}, {"name": "FeatureExtractor/MobilenetV2/expanded_conv_8/depthwise/weights_quant/FakeQuantWithMinMaxVars", "op": "Const", "attr": {"value": {"tensor": {"dtype": "DT_FLOAT", "tensorShape": {"dim": [{"size": "3"}, {"size": "3"}, {"size": "384"}, {"size": "1"}]}}}, "dtype": {"type": "DT_FLOAT"}}}, {"name": "FeatureExtractor/MobilenetV2/expanded_conv_8/project/weights_quant/FakeQuantWithMinMaxVars", "op": "Const", "attr": {"value": {"tensor": {"dtype": "DT_FLOAT", "tensorShape": {"dim": [{"size": "1"}, {"size": "1"}, {"size": "384"}, {"size": "64"}]}}}, "dtype": {"type": "DT_FLOAT"}}}, {"name": "FeatureExtractor/MobilenetV2/expanded_conv_8/project/act_quant/min", "op": "Const", "attr": {"value": {"tensor": {"dtype": "DT_FLOAT", "tensorShape": {}}}, "dtype": {"type": "DT_FLOAT"}}}, {"name": "FeatureExtractor/MobilenetV2/expanded_conv_8/project/act_quant/max", "op": "Const", "attr": {"value": {"tensor": {"dtype": "DT_FLOAT", "tensorShape": {}}}, "dtype": {"type": "DT_FLOAT"}}}, {"name": "FeatureExtractor/MobilenetV2/expanded_conv_8/post_activation_bypass_quant/min", "op": "Const", "attr": {"value": {"tensor": {"dtype": "DT_FLOAT", "tensorShape": {}}}, "dtype": {"type": "DT_FLOAT"}}}, {"name": "FeatureExtractor/MobilenetV2/expanded_conv_8/post_activation_bypass_quant/max", "op": "Const", "attr": {"value": {"tensor": {"dtype": "DT_FLOAT", "tensorShape": {}}}, "dtype": {"type": "DT_FLOAT"}}}, {"name": "FeatureExtractor/MobilenetV2/expanded_conv_9/expand/weights_quant/FakeQuantWithMinMaxVars", "op": "Const", "attr": {"value": {"tensor": {"dtype": "DT_FLOAT", "tensorShape": {"dim": [{"size": "1"}, {"size": "1"}, {"size": "64"}, {"size": "384"}]}}}, "dtype": {"type": "DT_FLOAT"}}}, {"name": "FeatureExtractor/MobilenetV2/expanded_conv_9/depthwise/weights_quant/FakeQuantWithMinMaxVars", "op": "Const", "attr": {"dtype": {"type": "DT_FLOAT"}, "value": {"tensor": {"dtype": "DT_FLOAT", "tensorShape": {"dim": [{"size": "3"}, {"size": "3"}, {"size": "384"}, {"size": "1"}]}}}}}, {"name": "FeatureExtractor/MobilenetV2/expanded_conv_9/project/weights_quant/FakeQuantWithMinMaxVars", "op": "Const", "attr": {"value": {"tensor": {"dtype": "DT_FLOAT", "tensorShape": {"dim": [{"size": "1"}, {"size": "1"}, {"size": "384"}, {"size": "64"}]}}}, "dtype": {"type": "DT_FLOAT"}}}, {"name": "FeatureExtractor/MobilenetV2/expanded_conv_9/project/act_quant/min", "op": "Const", "attr": {"value": {"tensor": {"dtype": "DT_FLOAT", "tensorShape": {}}}, "dtype": {"type": "DT_FLOAT"}}}, {"name": "FeatureExtractor/MobilenetV2/expanded_conv_9/project/act_quant/max", "op": "Const", "attr": {"value": {"tensor": {"dtype": "DT_FLOAT", "tensorShape": {}}}, "dtype": {"type": "DT_FLOAT"}}}, {"name": "FeatureExtractor/MobilenetV2/expanded_conv_9/post_activation_bypass_quant/min", "op": "Const", "attr": {"value": {"tensor": {"dtype": "DT_FLOAT", "tensorShape": {}}}, "dtype": {"type": "DT_FLOAT"}}}, {"name": "FeatureExtractor/MobilenetV2/expanded_conv_9/post_activation_bypass_quant/max", "op": "Const", "attr": {"value": {"tensor": {"dtype": "DT_FLOAT", "tensorShape": {}}}, "dtype": {"type": "DT_FLOAT"}}}, {"name": "FeatureExtractor/MobilenetV2/expanded_conv_10/expand/weights_quant/FakeQuantWithMinMaxVars", "op": "Const", "attr": {"value": {"tensor": {"dtype": "DT_FLOAT", "tensorShape": {"dim": [{"size": "1"}, {"size": "1"}, {"size": "64"}, {"size": "384"}]}}}, "dtype": {"type": "DT_FLOAT"}}}, {"name": "FeatureExtractor/MobilenetV2/expanded_conv_10/depthwise/weights_quant/FakeQuantWithMinMaxVars", "op": "Const", "attr": {"dtype": {"type": "DT_FLOAT"}, "value": {"tensor": {"dtype": "DT_FLOAT", "tensorShape": {"dim": [{"size": "3"}, {"size": "3"}, {"size": "384"}, {"size": "1"}]}}}}}, {"name": "FeatureExtractor/MobilenetV2/expanded_conv_10/project/weights_quant/FakeQuantWithMinMaxVars", "op": "Const", "attr": {"value": {"tensor": {"dtype": "DT_FLOAT", "tensorShape": {"dim": [{"size": "1"}, {"size": "1"}, {"size": "384"}, {"size": "96"}]}}}, "dtype": {"type": "DT_FLOAT"}}}, {"name": "FeatureExtractor/MobilenetV2/expanded_conv_10/project/act_quant/min", "op": "Const", "attr": {"value": {"tensor": {"dtype": "DT_FLOAT", "tensorShape": {}}}, "dtype": {"type": "DT_FLOAT"}}}, {"name": "FeatureExtractor/MobilenetV2/expanded_conv_10/project/act_quant/max", "op": "Const", "attr": {"value": {"tensor": {"dtype": "DT_FLOAT", "tensorShape": {}}}, "dtype": {"type": "DT_FLOAT"}}}, {"name": "FeatureExtractor/MobilenetV2/expanded_conv_11/expand/weights_quant/FakeQuantWithMinMaxVars", "op": "Const", "attr": {"value": {"tensor": {"dtype": "DT_FLOAT", "tensorShape": {"dim": [{"size": "1"}, {"size": "1"}, {"size": "96"}, {"size": "576"}]}}}, "dtype": {"type": "DT_FLOAT"}}}, {"name": "FeatureExtractor/MobilenetV2/expanded_conv_11/depthwise/weights_quant/FakeQuantWithMinMaxVars", "op": "Const", "attr": {"value": {"tensor": {"dtype": "DT_FLOAT", "tensorShape": {"dim": [{"size": "3"}, {"size": "3"}, {"size": "576"}, {"size": "1"}]}}}, "dtype": {"type": "DT_FLOAT"}}}, {"name": "FeatureExtractor/MobilenetV2/expanded_conv_11/project/weights_quant/FakeQuantWithMinMaxVars", "op": "Const", "attr": {"value": {"tensor": {"dtype": "DT_FLOAT", "tensorShape": {"dim": [{"size": "1"}, {"size": "1"}, {"size": "576"}, {"size": "96"}]}}}, "dtype": {"type": "DT_FLOAT"}}}, {"name": "FeatureExtractor/MobilenetV2/expanded_conv_11/project/act_quant/min", "op": "Const", "attr": {"value": {"tensor": {"dtype": "DT_FLOAT", "tensorShape": {}}}, "dtype": {"type": "DT_FLOAT"}}}, {"name": "FeatureExtractor/MobilenetV2/expanded_conv_11/project/act_quant/max", "op": "Const", "attr": {"value": {"tensor": {"dtype": "DT_FLOAT", "tensorShape": {}}}, "dtype": {"type": "DT_FLOAT"}}}, {"name": "FeatureExtractor/MobilenetV2/expanded_conv_11/post_activation_bypass_quant/min", "op": "Const", "attr": {"value": {"tensor": {"dtype": "DT_FLOAT", "tensorShape": {}}}, "dtype": {"type": "DT_FLOAT"}}}, {"name": "FeatureExtractor/MobilenetV2/expanded_conv_11/post_activation_bypass_quant/max", "op": "Const", "attr": {"value": {"tensor": {"dtype": "DT_FLOAT", "tensorShape": {}}}, "dtype": {"type": "DT_FLOAT"}}}, {"name": "FeatureExtractor/MobilenetV2/expanded_conv_12/expand/weights_quant/FakeQuantWithMinMaxVars", "op": "Const", "attr": {"value": {"tensor": {"dtype": "DT_FLOAT", "tensorShape": {"dim": [{"size": "1"}, {"size": "1"}, {"size": "96"}, {"size": "576"}]}}}, "dtype": {"type": "DT_FLOAT"}}}, {"name": "FeatureExtractor/MobilenetV2/expanded_conv_12/depthwise/weights_quant/FakeQuantWithMinMaxVars", "op": "Const", "attr": {"value": {"tensor": {"dtype": "DT_FLOAT", "tensorShape": {"dim": [{"size": "3"}, {"size": "3"}, {"size": "576"}, {"size": "1"}]}}}, "dtype": {"type": "DT_FLOAT"}}}, {"name": "FeatureExtractor/MobilenetV2/expanded_conv_12/project/weights_quant/FakeQuantWithMinMaxVars", "op": "Const", "attr": {"value": {"tensor": {"dtype": "DT_FLOAT", "tensorShape": {"dim": [{"size": "1"}, {"size": "1"}, {"size": "576"}, {"size": "96"}]}}}, "dtype": {"type": "DT_FLOAT"}}}, {"name": "FeatureExtractor/MobilenetV2/expanded_conv_12/project/act_quant/min", "op": "Const", "attr": {"value": {"tensor": {"dtype": "DT_FLOAT", "tensorShape": {}}}, "dtype": {"type": "DT_FLOAT"}}}, {"name": "FeatureExtractor/MobilenetV2/expanded_conv_12/project/act_quant/max", "op": "Const", "attr": {"value": {"tensor": {"dtype": "DT_FLOAT", "tensorShape": {}}}, "dtype": {"type": "DT_FLOAT"}}}, {"name": "FeatureExtractor/MobilenetV2/expanded_conv_12/post_activation_bypass_quant/min", "op": "Const", "attr": {"value": {"tensor": {"dtype": "DT_FLOAT", "tensorShape": {}}}, "dtype": {"type": "DT_FLOAT"}}}, {"name": "FeatureExtractor/MobilenetV2/expanded_conv_12/post_activation_bypass_quant/max", "op": "Const", "attr": {"value": {"tensor": {"dtype": "DT_FLOAT", "tensorShape": {}}}, "dtype": {"type": "DT_FLOAT"}}}, {"name": "FeatureExtractor/MobilenetV2/expanded_conv_13/expand/weights_quant/FakeQuantWithMinMaxVars", "op": "Const", "attr": {"value": {"tensor": {"dtype": "DT_FLOAT", "tensorShape": {"dim": [{"size": "1"}, {"size": "1"}, {"size": "96"}, {"size": "576"}]}}}, "dtype": {"type": "DT_FLOAT"}}}, {"name": "FeatureExtractor/MobilenetV2/expanded_conv_13/depthwise/weights_quant/FakeQuantWithMinMaxVars", "op": "Const", "attr": {"value": {"tensor": {"dtype": "DT_FLOAT", "tensorShape": {"dim": [{"size": "3"}, {"size": "3"}, {"size": "576"}, {"size": "1"}]}}}, "dtype": {"type": "DT_FLOAT"}}}, {"name": "FeatureExtractor/MobilenetV2/expanded_conv_13/project/weights_quant/FakeQuantWithMinMaxVars", "op": "Const", "attr": {"value": {"tensor": {"dtype": "DT_FLOAT", "tensorShape": {"dim": [{"size": "1"}, {"size": "1"}, {"size": "576"}, {"size": "160"}]}}}, "dtype": {"type": "DT_FLOAT"}}}, {"name": "FeatureExtractor/MobilenetV2/expanded_conv_13/project/act_quant/min", "op": "Const", "attr": {"value": {"tensor": {"dtype": "DT_FLOAT", "tensorShape": {}}}, "dtype": {"type": "DT_FLOAT"}}}, {"name": "FeatureExtractor/MobilenetV2/expanded_conv_13/project/act_quant/max", "op": "Const", "attr": {"value": {"tensor": {"dtype": "DT_FLOAT", "tensorShape": {}}}, "dtype": {"type": "DT_FLOAT"}}}, {"name": "FeatureExtractor/MobilenetV2/expanded_conv_14/expand/weights_quant/FakeQuantWithMinMaxVars", "op": "Const", "attr": {"dtype": {"type": "DT_FLOAT"}, "value": {"tensor": {"dtype": "DT_FLOAT", "tensorShape": {"dim": [{"size": "1"}, {"size": "1"}, {"size": "160"}, {"size": "960"}]}}}}}, {"name": "FeatureExtractor/MobilenetV2/expanded_conv_14/depthwise/weights_quant/FakeQuantWithMinMaxVars", "op": "Const", "attr": {"value": {"tensor": {"dtype": "DT_FLOAT", "tensorShape": {"dim": [{"size": "3"}, {"size": "3"}, {"size": "960"}, {"size": "1"}]}}}, "dtype": {"type": "DT_FLOAT"}}}, {"name": "FeatureExtractor/MobilenetV2/expanded_conv_14/project/weights_quant/FakeQuantWithMinMaxVars", "op": "Const", "attr": {"value": {"tensor": {"dtype": "DT_FLOAT", "tensorShape": {"dim": [{"size": "1"}, {"size": "1"}, {"size": "960"}, {"size": "160"}]}}}, "dtype": {"type": "DT_FLOAT"}}}, {"name": "FeatureExtractor/MobilenetV2/expanded_conv_14/project/act_quant/min", "op": "Const", "attr": {"value": {"tensor": {"dtype": "DT_FLOAT", "tensorShape": {}}}, "dtype": {"type": "DT_FLOAT"}}}, {"name": "FeatureExtractor/MobilenetV2/expanded_conv_14/project/act_quant/max", "op": "Const", "attr": {"value": {"tensor": {"dtype": "DT_FLOAT", "tensorShape": {}}}, "dtype": {"type": "DT_FLOAT"}}}, {"name": "FeatureExtractor/MobilenetV2/expanded_conv_14/post_activation_bypass_quant/min", "op": "Const", "attr": {"value": {"tensor": {"dtype": "DT_FLOAT", "tensorShape": {}}}, "dtype": {"type": "DT_FLOAT"}}}, {"name": "FeatureExtractor/MobilenetV2/expanded_conv_14/post_activation_bypass_quant/max", "op": "Const", "attr": {"value": {"tensor": {"dtype": "DT_FLOAT", "tensorShape": {}}}, "dtype": {"type": "DT_FLOAT"}}}, {"name": "FeatureExtractor/MobilenetV2/expanded_conv_15/expand/weights_quant/FakeQuantWithMinMaxVars", "op": "Const", "attr": {"value": {"tensor": {"dtype": "DT_FLOAT", "tensorShape": {"dim": [{"size": "1"}, {"size": "1"}, {"size": "160"}, {"size": "960"}]}}}, "dtype": {"type": "DT_FLOAT"}}}, {"name": "FeatureExtractor/MobilenetV2/expanded_conv_15/depthwise/weights_quant/FakeQuantWithMinMaxVars", "op": "Const", "attr": {"value": {"tensor": {"dtype": "DT_FLOAT", "tensorShape": {"dim": [{"size": "3"}, {"size": "3"}, {"size": "960"}, {"size": "1"}]}}}, "dtype": {"type": "DT_FLOAT"}}}, {"name": "FeatureExtractor/MobilenetV2/expanded_conv_15/project/weights_quant/FakeQuantWithMinMaxVars", "op": "Const", "attr": {"value": {"tensor": {"dtype": "DT_FLOAT", "tensorShape": {"dim": [{"size": "1"}, {"size": "1"}, {"size": "960"}, {"size": "160"}]}}}, "dtype": {"type": "DT_FLOAT"}}}, {"name": "FeatureExtractor/MobilenetV2/expanded_conv_15/project/act_quant/min", "op": "Const", "attr": {"value": {"tensor": {"dtype": "DT_FLOAT", "tensorShape": {}}}, "dtype": {"type": "DT_FLOAT"}}}, {"name": "FeatureExtractor/MobilenetV2/expanded_conv_15/project/act_quant/max", "op": "Const", "attr": {"value": {"tensor": {"dtype": "DT_FLOAT", "tensorShape": {}}}, "dtype": {"type": "DT_FLOAT"}}}, {"name": "FeatureExtractor/MobilenetV2/expanded_conv_15/post_activation_bypass_quant/min", "op": "Const", "attr": {"value": {"tensor": {"dtype": "DT_FLOAT", "tensorShape": {}}}, "dtype": {"type": "DT_FLOAT"}}}, {"name": "FeatureExtractor/MobilenetV2/expanded_conv_15/post_activation_bypass_quant/max", "op": "Const", "attr": {"value": {"tensor": {"dtype": "DT_FLOAT", "tensorShape": {}}}, "dtype": {"type": "DT_FLOAT"}}}, {"name": "FeatureExtractor/MobilenetV2/expanded_conv_16/expand/weights_quant/FakeQuantWithMinMaxVars", "op": "Const", "attr": {"value": {"tensor": {"dtype": "DT_FLOAT", "tensorShape": {"dim": [{"size": "1"}, {"size": "1"}, {"size": "160"}, {"size": "960"}]}}}, "dtype": {"type": "DT_FLOAT"}}}, {"name": "FeatureExtractor/MobilenetV2/expanded_conv_16/depthwise/weights_quant/FakeQuantWithMinMaxVars", "op": "Const", "attr": {"value": {"tensor": {"dtype": "DT_FLOAT", "tensorShape": {"dim": [{"size": "3"}, {"size": "3"}, {"size": "960"}, {"size": "1"}]}}}, "dtype": {"type": "DT_FLOAT"}}}, {"name": "FeatureExtractor/MobilenetV2/expanded_conv_16/project/weights_quant/FakeQuantWithMinMaxVars", "op": "Const", "attr": {"value": {"tensor": {"dtype": "DT_FLOAT", "tensorShape": {"dim": [{"size": "1"}, {"size": "1"}, {"size": "960"}, {"size": "320"}]}}}, "dtype": {"type": "DT_FLOAT"}}}, {"name": "FeatureExtractor/MobilenetV2/expanded_conv_16/project/act_quant/min", "op": "Const", "attr": {"value": {"tensor": {"dtype": "DT_FLOAT", "tensorShape": {}}}, "dtype": {"type": "DT_FLOAT"}}}, {"name": "FeatureExtractor/MobilenetV2/expanded_conv_16/project/act_quant/max", "op": "Const", "attr": {"dtype": {"type": "DT_FLOAT"}, "value": {"tensor": {"dtype": "DT_FLOAT", "tensorShape": {}}}}}, {"name": "FeatureExtractor/MobilenetV2/Conv_1/weights_quant/FakeQuantWithMinMaxVars", "op": "Const", "attr": {"value": {"tensor": {"dtype": "DT_FLOAT", "tensorShape": {"dim": [{"size": "1"}, {"size": "1"}, {"size": "320"}, {"size": "1280"}]}}}, "dtype": {"type": "DT_FLOAT"}}}, {"name": "FeatureExtractor/MobilenetV2/layer_19_1_Conv2d_2_1x1_256/weights_quant/FakeQuantWithMinMaxVars", "op": "Const", "attr": {"value": {"tensor": {"dtype": "DT_FLOAT", "tensorShape": {"dim": [{"size": "1"}, {"size": "1"}, {"size": "1280"}, {"size": "256"}]}}}, "dtype": {"type": "DT_FLOAT"}}}, {"name": "FeatureExtractor/MobilenetV2/layer_19_2_Conv2d_2_3x3_s2_512/weights_quant/FakeQuantWithMinMaxVars", "op": "Const", "attr": {"value": {"tensor": {"dtype": "DT_FLOAT", "tensorShape": {"dim": [{"size": "3"}, {"size": "3"}, {"size": "256"}, {"size": "512"}]}}}, "dtype": {"type": "DT_FLOAT"}}}, {"name": "FeatureExtractor/MobilenetV2/layer_19_1_Conv2d_3_1x1_128/weights_quant/FakeQuantWithMinMaxVars", "op": "Const", "attr": {"value": {"tensor": {"dtype": "DT_FLOAT", "tensorShape": {"dim": [{"size": "1"}, {"size": "1"}, {"size": "512"}, {"size": "128"}]}}}, "dtype": {"type": "DT_FLOAT"}}}, {"name": "FeatureExtractor/MobilenetV2/layer_19_1_Conv2d_3_1x1_128/act_quant/max", "op": "Const", "attr": {"value": {"tensor": {"dtype": "DT_FLOAT", "tensorShape": {}}}, "dtype": {"type": "DT_FLOAT"}}}, {"name": "FeatureExtractor/MobilenetV2/layer_19_2_Conv2d_3_3x3_s2_256/weights_quant/FakeQuantWithMinMaxVars", "op": "Const", "attr": {"value": {"tensor": {"dtype": "DT_FLOAT", "tensorShape": {"dim": [{"size": "3"}, {"size": "3"}, {"size": "128"}, {"size": "256"}]}}}, "dtype": {"type": "DT_FLOAT"}}}, {"name": "FeatureExtractor/MobilenetV2/layer_19_1_Conv2d_4_1x1_128/weights_quant/FakeQuantWithMinMaxVars", "op": "Const", "attr": {"value": {"tensor": {"dtype": "DT_FLOAT", "tensorShape": {"dim": [{"size": "1"}, {"size": "1"}, {"size": "256"}, {"size": "128"}]}}}, "dtype": {"type": "DT_FLOAT"}}}, {"name": "FeatureExtractor/MobilenetV2/layer_19_1_Conv2d_4_1x1_128/act_quant/max", "op": "Const", "attr": {"dtype": {"type": "DT_FLOAT"}, "value": {"tensor": {"dtype": "DT_FLOAT", "tensorShape": {}}}}}, {"name": "FeatureExtractor/MobilenetV2/layer_19_2_Conv2d_4_3x3_s2_256/weights_quant/FakeQuantWithMinMaxVars", "op": "Const", "attr": {"dtype": {"type": "DT_FLOAT"}, "value": {"tensor": {"dtype": "DT_FLOAT", "tensorShape": {"dim": [{"size": "3"}, {"size": "3"}, {"size": "128"}, {"size": "256"}]}}}}}, {"name": "FeatureExtractor/MobilenetV2/layer_19_1_Conv2d_5_1x1_64/weights_quant/FakeQuantWithMinMaxVars", "op": "Const", "attr": {"dtype": {"type": "DT_FLOAT"}, "value": {"tensor": {"dtype": "DT_FLOAT", "tensorShape": {"dim": [{"size": "1"}, {"size": "1"}, {"size": "256"}, {"size": "64"}]}}}}}, {"name": "FeatureExtractor/MobilenetV2/layer_19_1_Conv2d_5_1x1_64/act_quant/max", "op": "Const", "attr": {"dtype": {"type": "DT_FLOAT"}, "value": {"tensor": {"dtype": "DT_FLOAT", "tensorShape": {}}}}}, {"name": "FeatureExtractor/MobilenetV2/layer_19_2_Conv2d_5_3x3_s2_128/weights_quant/FakeQuantWithMinMaxVars", "op": "Const", "attr": {"value": {"tensor": {"dtype": "DT_FLOAT", "tensorShape": {"dim": [{"size": "3"}, {"size": "3"}, {"size": "64"}, {"size": "128"}]}}}, "dtype": {"type": "DT_FLOAT"}}}, {"name": "FeatureExtractor/MobilenetV2/expanded_conv_15/expand/act_quant/min", "op": "Const", "attr": {"value": {"tensor": {"dtype": "DT_FLOAT", "tensorShape": {}}}, "dtype": {"type": "DT_FLOAT"}}}, {"name": "FeatureExtractor/MobilenetV2/expanded_conv_15/expand/act_quant/max", "op": "Const", "attr": {"dtype": {"type": "DT_FLOAT"}, "value": {"tensor": {"dtype": "DT_FLOAT", "tensorShape": {}}}}}, {"name": "Postprocessor/BatchMultiClassNonMaxSuppression/map/TensorArrayUnstack_5/strided_slice/stack", "op": "Const", "attr": {"value": {"tensor": {"dtype": "DT_INT32", "tensorShape": {"dim": [{"size": "1"}]}}}, "dtype": {"type": "DT_INT32"}}}, {"name": "Postprocessor/BatchMultiClassNonMaxSuppression/map/TensorArrayUnstack_5/strided_slice/stack_1", "op": "Const", "attr": {"value": {"tensor": {"dtype": "DT_INT32", "tensorShape": {"dim": [{"size": "1"}]}}}, "dtype": {"type": "DT_INT32"}}}, {"name": "BoxPredictor_0/Reshape/shape/1", "op": "Const", "attr": {"value": {"tensor": {"dtype": "DT_INT32", "tensorShape": {}}}, "dtype": {"type": "DT_INT32"}}}, {"name": "BoxPredictor_0/Reshape_1/shape/2", "op": "Const", "attr": {"value": {"tensor": {"dtype": "DT_INT32", "tensorShape": {}}}, "dtype": {"type": "DT_INT32"}}}, {"name": "Postprocessor/BatchMultiClassNonMaxSuppression/map/TensorArrayStack/range/delta", "op": "Const", "attr": {"value": {"tensor": {"dtype": "DT_INT32", "tensorShape": {}}}, "dtype": {"type": "DT_INT32"}}}, {"name": "Postprocessor/BatchMultiClassNonMaxSuppression/map/while/Enter_1", "op": "Enter", "input": ["Postprocessor/BatchMultiClassNonMaxSuppression/map/TensorArrayStack/range/start"], "attr": {"parallel_iterations": {"i": "32"}, "frame_name": {"s": "UG9zdHByb2Nlc3Nvci9CYXRjaE11bHRpQ2xhc3NOb25NYXhTdXBwcmVzc2lvbi9tYXAvd2hpbGUvd2hpbGVfY29udGV4dA=="}, "T": {"type": "DT_INT32"}, "is_constant": {"b": false}}}, {"name": "Postprocessor/BatchMultiClassNonMaxSuppression/map/while/Enter", "op": "Enter", "input": ["Postprocessor/BatchMultiClassNonMaxSuppression/map/TensorArrayStack/range/start"], "attr": {"T": {"type": "DT_INT32"}, "is_constant": {"b": false}, "parallel_iterations": {"i": "32"}, "frame_name": {"s": "UG9zdHByb2Nlc3Nvci9CYXRjaE11bHRpQ2xhc3NOb25NYXhTdXBwcmVzc2lvbi9tYXAvd2hpbGUvd2hpbGVfY29udGV4dA=="}}}, {"name": "Preprocessor/map/while/Enter_1", "op": "Enter", "input": ["Postprocessor/BatchMultiClassNonMaxSuppression/map/TensorArrayStack/range/start"], "attr": {"parallel_iterations": {"i": "32"}, "frame_name": {"s": "UHJlcHJvY2Vzc29yL21hcC93aGlsZS93aGlsZV9jb250ZXh0"}, "T": {"type": "DT_INT32"}, "is_constant": {"b": false}}}, {"name": "Preprocessor/map/while/Enter", "op": "Enter", "input": ["Postprocessor/BatchMultiClassNonMaxSuppression/map/TensorArrayStack/range/start"], "attr": {"T": {"type": "DT_INT32"}, "is_constant": {"b": false}, "parallel_iterations": {"i": "32"}, "frame_name": {"s": "UHJlcHJvY2Vzc29yL21hcC93aGlsZS93aGlsZV9jb250ZXh0"}}}, {"name": "Cast", "op": "Cast", "input": ["image_tensor"], "attr": {"SrcT": {"type": "DT_UINT8"}, "Truncate": {"b": false}, "DstT": {"type": "DT_FLOAT"}}}, {"name": "Postprocessor/BatchMultiClassNonMaxSuppression/map/while/Merge_1", "op": "Merge", "input": ["Postprocessor/BatchMultiClassNonMaxSuppression/map/while/Enter_1", "Postprocessor/BatchMultiClassNonMaxSuppression/map/while/NextIteration_1"], "attr": {"T": {"type": "DT_INT32"}, "N": {"i": "2"}}}, {"name": "Postprocessor/BatchMultiClassNonMaxSuppression/map/while/Merge", "op": "Merge", "input": ["Postprocessor/BatchMultiClassNonMaxSuppression/map/while/Enter", "Postprocessor/BatchMultiClassNonMaxSuppression/map/while/NextIteration"], "attr": {"T": {"type": "DT_INT32"}, "N": {"i": "2"}}}, {"name": "Preprocessor/map/while/Merge_1", "op": "Merge", "input": ["Preprocessor/map/while/Enter_1", "Preprocessor/map/while/NextIteration_1"], "attr": {"T": {"type": "DT_INT32"}, "N": {"i": "2"}}}, {"name": "Preprocessor/map/while/Merge", "op": "Merge", "input": ["Preprocessor/map/while/Enter", "Preprocessor/map/while/NextIteration"], "attr": {"T": {"type": "DT_INT32"}, "N": {"i": "2"}}}, {"name": "Preprocessor/map/TensorArrayUnstack/Shape", "op": "Shape", "input": ["Cast"], "attr": {"T": {"type": "DT_FLOAT"}, "out_type": {"type": "DT_INT32"}}}, {"name": "Preprocessor/map/TensorArrayUnstack/strided_slice", "op": "StridedSlice", "input": ["Preprocessor/map/TensorArrayUnstack/Shape", "Postprocessor/BatchMultiClassNonMaxSuppression/map/TensorArrayUnstack_5/strided_slice/stack", "Postprocessor/BatchMultiClassNonMaxSuppression/map/TensorArrayUnstack_5/strided_slice/stack_1", "Postprocessor/BatchMultiClassNonMaxSuppression/map/TensorArrayUnstack_5/strided_slice/stack_1"], "attr": {"Index": {"type": "DT_INT32"}, "T": {"type": "DT_INT32"}, "shrink_axis_mask": {"i": "1"}, "ellipsis_mask": {"i": "0"}, "begin_mask": {"i": "0"}, "new_axis_mask": {"i": "0"}, "end_mask": {"i": "0"}}}, {"name": "Preprocessor/map/TensorArray_2", "op": "TensorArrayV3", "input": ["Preprocessor/map/TensorArrayUnstack/strided_slice"], "attr": {"identical_element_shapes": {"b": true}, "tensor_array_name": {"s": ""}, "dtype": {"type": "DT_INT32"}, "element_shape": {"shape": {"unknownRank": true}}, "clear_after_read": {"b": true}, "dynamic_size": {"b": false}}}, {"name": "Preprocessor/map/TensorArray_1", "op": "TensorArrayV3", "input": ["Preprocessor/map/TensorArrayUnstack/strided_slice"], "attr": {"tensor_array_name": {"s": ""}, "dtype": {"type": "DT_FLOAT"}, "element_shape": {"shape": {"unknownRank": true}}, "clear_after_read": {"b": true}, "dynamic_size": {"b": false}, "identical_element_shapes": {"b": true}}}, {"name": "Preprocessor/map/TensorArray", "op": "TensorArrayV3", "input": ["Preprocessor/map/TensorArrayUnstack/strided_slice"], "attr": {"element_shape": {"shape": {"unknownRank": true}}, "dynamic_size": {"b": false}, "clear_after_read": {"b": true}, "identical_element_shapes": {"b": true}, "tensor_array_name": {"s": ""}, "dtype": {"type": "DT_FLOAT"}}}, {"name": "Preprocessor/map/while/Less/Enter", "op": "Enter", "input": ["Preprocessor/map/TensorArrayUnstack/strided_slice"], "attr": {"frame_name": {"s": "UHJlcHJvY2Vzc29yL21hcC93aGlsZS93aGlsZV9jb250ZXh0"}, "T": {"type": "DT_INT32"}, "is_constant": {"b": true}, "parallel_iterations": {"i": "32"}}}, {"name": "Preprocessor/map/TensorArrayUnstack/range", "op": "Range", "input": ["Postprocessor/BatchMultiClassNonMaxSuppression/map/TensorArrayStack/range/start", "Preprocessor/map/TensorArrayUnstack/strided_slice", "Postprocessor/BatchMultiClassNonMaxSuppression/map/TensorArrayStack/range/delta"], "attr": {"Tidx": {"type": "DT_INT32"}}}, {"name": "Preprocessor/map/while/TensorArrayWrite_1/TensorArrayWriteV3/Enter", "op": "Enter", "input": ["Preprocessor/map/TensorArray_2"], "attr": {"T": {"type": "DT_RESOURCE"}, "is_constant": {"b": true}, "parallel_iterations": {"i": "32"}, "frame_name": {"s": "UHJlcHJvY2Vzc29yL21hcC93aGlsZS93aGlsZV9jb250ZXh0"}}}, {"name": "Preprocessor/map/while/Enter_3", "op": "Enter", "input": ["Preprocessor/map/TensorArray_2:1"], "attr": {"T": {"type": "DT_FLOAT"}, "is_constant": {"b": false}, "parallel_iterations": {"i": "32"}, "frame_name": {"s": "UHJlcHJvY2Vzc29yL21hcC93aGlsZS93aGlsZV9jb250ZXh0"}}}, {"name": "Preprocessor/map/while/TensorArrayWrite/TensorArrayWriteV3/Enter", "op": "Enter", "input": ["Preprocessor/map/TensorArray_1"], "attr": {"T": {"type": "DT_RESOURCE"}, "is_constant": {"b": true}, "parallel_iterations": {"i": "32"}, "frame_name": {"s": "UHJlcHJvY2Vzc29yL21hcC93aGlsZS93aGlsZV9jb250ZXh0"}}}, {"name": "Preprocessor/map/while/Enter_2", "op": "Enter", "input": ["Preprocessor/map/TensorArray_1:1"], "attr": {"T": {"type": "DT_FLOAT"}, "is_constant": {"b": false}, "parallel_iterations": {"i": "32"}, "frame_name": {"s": "UHJlcHJvY2Vzc29yL21hcC93aGlsZS93aGlsZV9jb250ZXh0"}}}, {"name": "Preprocessor/map/while/TensorArrayReadV3/Enter", "op": "Enter", "input": ["Preprocessor/map/TensorArray"], "attr": {"T": {"type": "DT_RESOURCE"}, "is_constant": {"b": true}, "parallel_iterations": {"i": "32"}, "frame_name": {"s": "UHJlcHJvY2Vzc29yL21hcC93aGlsZS93aGlsZV9jb250ZXh0"}}}, {"name": "Preprocessor/map/while/Less", "op": "Less", "input": ["Preprocessor/map/while/Merge", "Preprocessor/map/while/Less/Enter"], "attr": {"T": {"type": "DT_INT32"}}}, {"name": "Preprocessor/map/while/Less_1", "op": "Less", "input": ["Preprocessor/map/while/Merge_1", "Preprocessor/map/while/Less/Enter"], "attr": {"T": {"type": "DT_INT32"}}}, {"name": "Preprocessor/map/TensorArrayUnstack/TensorArrayScatter/TensorArrayScatterV3", "op": "TensorArrayScatterV3", "input": ["Preprocessor/map/TensorArray", "Preprocessor/map/TensorArrayUnstack/range", "Cast", "Preprocessor/map/TensorArray:1"], "attr": {"T": {"type": "DT_FLOAT"}}}, {"name": "Preprocessor/map/while/Merge_3", "op": "Merge", "input": ["Preprocessor/map/while/Enter_3", "Preprocessor/map/while/NextIteration_3"], "attr": {"T": {"type": "DT_FLOAT"}, "N": {"i": "2"}}}, {"name": "Preprocessor/map/while/Merge_2", "op": "Merge", "input": ["Preprocessor/map/while/Enter_2", "Preprocessor/map/while/NextIteration_2"], "attr": {"T": {"type": "DT_FLOAT"}, "N": {"i": "2"}}}, {"name": "Preprocessor/map/while/LogicalAnd", "op": "LogicalAnd", "input": ["Preprocessor/map/while/Less", "Preprocessor/map/while/Less_1"]}, {"name": "Preprocessor/map/while/TensorArrayReadV3/Enter_1", "op": "Enter", "input": ["Preprocessor/map/TensorArrayUnstack/TensorArrayScatter/TensorArrayScatterV3"], "attr": {"T": {"type": "DT_FLOAT"}, "is_constant": {"b": true}, "parallel_iterations": {"i": "32"}, "frame_name": {"s": "UHJlcHJvY2Vzc29yL21hcC93aGlsZS93aGlsZV9jb250ZXh0"}}}, {"name": "Preprocessor/map/while/LoopCond", "op": "LoopCond", "input": ["Preprocessor/map/while/LogicalAnd"]}, {"name": "Preprocessor/map/while/Switch_3", "op": "Switch", "input": ["Preprocessor/map/while/Merge_3", "Preprocessor/map/while/LoopCond"], "attr": {"T": {"type": "DT_FLOAT"}}}, {"name": "Preprocessor/map/while/Switch_1", "op": "Switch", "input": ["Preprocessor/map/while/Merge_1", "Preprocessor/map/while/LoopCond"], "attr": {"T": {"type": "DT_INT32"}}}, {"name": "Preprocessor/map/while/Switch", "op": "Switch", "input": ["Preprocessor/map/while/Merge", "Preprocessor/map/while/LoopCond"], "attr": {"T": {"type": "DT_INT32"}}}, {"name": "Preprocessor/map/while/Switch_2", "op": "Switch", "input": ["Preprocessor/map/while/Merge_2", "Preprocessor/map/while/LoopCond"], "attr": {"T": {"type": "DT_FLOAT"}}}, {"name": "Preprocessor/map/while/Exit_3", "op": "Exit", "input": ["Preprocessor/map/while/Switch_3"], "attr": {"T": {"type": "DT_FLOAT"}}}, {"name": "Preprocessor/map/while/TensorArrayReadV3", "op": "TensorArrayReadV3", "input": ["Preprocessor/map/while/TensorArrayReadV3/Enter", "Preprocessor/map/while/Switch_1:1", "Preprocessor/map/while/TensorArrayReadV3/Enter_1"], "attr": {"dtype": {"type": "DT_FLOAT"}}}, {"name": "Preprocessor/map/while/Identity", "op": "Identity", "input": ["Preprocessor/map/while/Switch:1"], "attr": {"T": {"type": "DT_INT32"}}}, {"name": "Preprocessor/map/while/Exit_2", "op": "Exit", "input": ["Preprocessor/map/while/Switch_2"], "attr": {"T": {"type": "DT_FLOAT"}}}, {"name": "Preprocessor/map/TensorArrayStack_1/TensorArraySizeV3", "op": "TensorArraySizeV3", "input": ["Preprocessor/map/TensorArray_2", "Preprocessor/map/while/Exit_3"]}, {"name": "Preprocessor/map/while/ResizeImage/stack_1", "op": "Const", "input": ["^Preprocessor/map/while/Identity"], "attr": {"value": {"tensor": {"dtype": "DT_INT32", "tensorShape": {"dim": [{"size": "3"}]}}}, "dtype": {"type": "DT_INT32"}}}, {"name": "Preprocessor/map/while/ResizeImage/resize/ExpandDims/dim", "op": "Const", "input": ["^Preprocessor/map/while/Identity"], "attr": {"value": {"tensor": {"dtype": "DT_INT32", "tensorShape": {}}}, "dtype": {"type": "DT_INT32"}}}, {"name": "Preprocessor/map/while/ResizeImage/stack", "op": "Const", "input": ["^Preprocessor/map/while/Identity"], "attr": {"value": {"tensor": {"dtype": "DT_INT32", "tensorShape": {"dim": [{"size": "2"}]}}}, "dtype": {"type": "DT_INT32"}}}, {"name": "Preprocessor/map/while/add/y", "op": "Const", "input": ["^Preprocessor/map/while/Identity"], "attr": {"value": {"tensor": {"dtype": "DT_INT32", "tensorShape": {}}}, "dtype": {"type": "DT_INT32"}}}, {"name": "Preprocessor/map/TensorArrayStack/TensorArraySizeV3", "op": "TensorArraySizeV3", "input": ["Preprocessor/map/TensorArray_1", "Preprocessor/map/while/Exit_2"]}, {"name": "Preprocessor/map/TensorArrayStack_1/range", "op": "Range", "input": ["Postprocessor/BatchMultiClassNonMaxSuppression/map/TensorArrayStack/range/start", "Preprocessor/map/TensorArrayStack_1/TensorArraySizeV3", "Postprocessor/BatchMultiClassNonMaxSuppression/map/TensorArrayStack/range/delta"], "attr": {"Tidx": {"type": "DT_INT32"}}}, {"name": "Preprocessor/map/while/TensorArrayWrite_1/TensorArrayWriteV3", "op": "TensorArrayWriteV3", "input": ["Preprocessor/map/while/TensorArrayWrite_1/TensorArrayWriteV3/Enter", "Preprocessor/map/while/Switch_1:1", "Preprocessor/map/while/ResizeImage/stack_1", "Preprocessor/map/while/Switch_3:1"], "attr": {"T": {"type": "DT_INT32"}}}, {"name": "Preprocessor/map/while/ResizeImage/resize/ExpandDims", "op": "ExpandDims", "input": ["Preprocessor/map/while/TensorArrayReadV3", "Preprocessor/map/while/ResizeImage/resize/ExpandDims/dim"], "attr": {"Tdim": {"type": "DT_INT32"}, "T": {"type": "DT_FLOAT"}}}, {"name": "Preprocessor/map/while/add", "op": "Add", "input": ["Preprocessor/map/while/Identity", "Preprocessor/map/while/add/y"], "attr": {"T": {"type": "DT_INT32"}}}, {"name": "Preprocessor/map/while/add_1", "op": "Add", "input": ["Preprocessor/map/while/Switch_1:1", "Preprocessor/map/while/add/y"], "attr": {"T": {"type": "DT_INT32"}}}, {"name": "Preprocessor/map/TensorArrayStack/range", "op": "Range", "input": ["Postprocessor/BatchMultiClassNonMaxSuppression/map/TensorArrayStack/range/start", "Preprocessor/map/TensorArrayStack/TensorArraySizeV3", "Postprocessor/BatchMultiClassNonMaxSuppression/map/TensorArrayStack/range/delta"], "attr": {"Tidx": {"type": "DT_INT32"}}}, {"name": "Preprocessor/map/TensorArrayStack_1/TensorArrayGatherV3", "op": "TensorArrayGatherV3", "input": ["Preprocessor/map/TensorArray_2", "Preprocessor/map/TensorArrayStack_1/range", "Preprocessor/map/while/Exit_3"], "attr": {"element_shape": {"shape": {"dim": [{"size": "3"}]}}, "dtype": {"type": "DT_INT32"}}}, {"name": "Preprocessor/map/while/NextIteration_3", "op": "NextIteration", "input": ["Preprocessor/map/while/TensorArrayWrite_1/TensorArrayWriteV3"], "attr": {"T": {"type": "DT_FLOAT"}}}, {"name": "Preprocessor/map/while/ResizeImage/resize/ResizeBilinear", "op": "ResizeBilinear", "input": ["Preprocessor/map/while/ResizeImage/resize/ExpandDims", "Preprocessor/map/while/ResizeImage/stack"], "attr": {"align_corners": {"b": false}, "half_pixel_centers": {"b": false}, "T": {"type": "DT_FLOAT"}}}, {"name": "Preprocessor/map/while/NextIteration", "op": "NextIteration", "input": ["Preprocessor/map/while/add"], "attr": {"T": {"type": "DT_INT32"}}}, {"name": "Preprocessor/map/while/NextIteration_1", "op": "NextIteration", "input": ["Preprocessor/map/while/add_1"], "attr": {"T": {"type": "DT_INT32"}}}, {"name": "Preprocessor/map/TensorArrayStack/TensorArrayGatherV3", "op": "TensorArrayGatherV3", "input": ["Preprocessor/map/TensorArray_1", "Preprocessor/map/TensorArrayStack/range", "Preprocessor/map/while/Exit_2"], "attr": {"element_shape": {"shape": {"dim": [{"size": "300"}, {"size": "300"}, {"size": "3"}]}}, "dtype": {"type": "DT_FLOAT"}}}, {"name": "Postprocessor/Cast_1", "op": "Cast", "input": ["Preprocessor/map/TensorArrayStack_1/TensorArrayGatherV3"], "attr": {"DstT": {"type": "DT_FLOAT"}, "SrcT": {"type": "DT_INT32"}, "Truncate": {"b": false}}}, {"name": "Preprocessor/map/while/ResizeImage/resize/Squeeze", "op": "Squeeze", "input": ["Preprocessor/map/while/ResizeImage/resize/ResizeBilinear"], "attr": {"T": {"type": "DT_FLOAT"}, "squeeze_dims": {"list": {"i": ["0"]}}}}, {"name": "Preprocessor/mul", "op": "Mul", "input": ["Preprocessor/map/TensorArrayStack/TensorArrayGatherV3", "Preprocessor/mul/x"], "attr": {"T": {"type": "DT_FLOAT"}}}, {"name": "Postprocessor/unstack", "op": "Unpack", "input": ["Postprocessor/Cast_1"], "attr": {"axis": {"i": "1"}, "num": {"i": "3"}, "T": {"type": "DT_FLOAT"}}}, {"name": "Preprocessor/map/while/TensorArrayWrite/TensorArrayWriteV3", "op": "TensorArrayWriteV3", "input": ["Preprocessor/map/while/TensorArrayWrite/TensorArrayWriteV3/Enter", "Preprocessor/map/while/Switch_1:1", "Preprocessor/map/while/ResizeImage/resize/Squeeze", "Preprocessor/map/while/Switch_2:1"], "attr": {"T": {"type": "DT_FLOAT"}}}, {"name": "Preprocessor/sub", "op": "Sub", "input": ["Preprocessor/mul", "add/y"], "attr": {"T": {"type": "DT_FLOAT"}}}, {"name": "Postprocessor/zeros_like", "op": "ZerosLike", "input": ["Postprocessor/unstack"], "attr": {"T": {"type": "DT_FLOAT"}}}, {"name": "Postprocessor/truediv", "op": "Mul", "input": ["ConstantFolding/Postprocessor/truediv_recip", "Postprocessor/unstack"], "attr": {"T": {"type": "DT_FLOAT"}}}, {"name": "Postprocessor/zeros_like_1", "op": "ZerosLike", "input": ["Postprocessor/unstack:1"], "attr": {"T": {"type": "DT_FLOAT"}}}, {"name": "Postprocessor/truediv_1", "op": "Mul", "input": ["ConstantFolding/Postprocessor/truediv_recip", "Postprocessor/unstack:1"], "attr": {"T": {"type": "DT_FLOAT"}}}, {"name": "Preprocessor/map/while/NextIteration_2", "op": "NextIteration", "input": ["Preprocessor/map/while/TensorArrayWrite/TensorArrayWriteV3"], "attr": {"T": {"type": "DT_FLOAT"}}}, {"name": "FeatureExtractor/MobilenetV2/Conv/Conv2D_Fold", "op": "Conv2D", "input": ["Preprocessor/sub", "FeatureExtractor/MobilenetV2/Conv/weights_quant/FakeQuantWithMinMaxVars"], "device": "/device:CPU:0", "attr": {"strides": {"list": {"i": ["1", "2", "2", "1"]}}, "data_format": {"s": "TkhXQw=="}, "use_cudnn_on_gpu": {"b": true}, "explicit_paddings": {"list": {}}, "padding": {"s": "U0FNRQ=="}, "dilations": {"list": {"i": ["1", "1", "1", "1"]}}, "T": {"type": "DT_FLOAT"}}}, {"name": "Postprocessor/stack_1", "op": "Pack", "input": ["Postprocessor/zeros_like", "Postprocessor/zeros_like_1", "Postprocessor/truediv", "Postprocessor/truediv_1"], "attr": {"T": {"type": "DT_FLOAT"}, "axis": {"i": "1"}, "N": {"i": "4"}}}, {"name": "FeatureExtractor/MobilenetV2/Conv/add_fold", "op": "Add", "input": ["FeatureExtractor/MobilenetV2/Conv/BatchNorm_Fold/bias", "FeatureExtractor/MobilenetV2/Conv/Conv2D_Fold"], "attr": {"T": {"type": "DT_FLOAT"}}}, {"name": "Postprocessor/BatchMultiClassNonMaxSuppression/map/TensorArrayUnstack_3/Shape", "op": "Shape", "input": ["Postprocessor/stack_1"], "attr": {"T": {"type": "DT_FLOAT"}, "out_type": {"type": "DT_INT32"}}}, {"name": "FeatureExtractor/MobilenetV2/Conv/Relu6", "op": "Relu6", "input": ["FeatureExtractor/MobilenetV2/Conv/add_fold"], "attr": {"T": {"type": "DT_FLOAT"}}}, {"name": "Postprocessor/BatchMultiClassNonMaxSuppression/map/TensorArrayUnstack_3/strided_slice", "op": "StridedSlice", "input": ["Postprocessor/BatchMultiClassNonMaxSuppression/map/TensorArrayUnstack_3/Shape", "Postprocessor/BatchMultiClassNonMaxSuppression/map/TensorArrayUnstack_5/strided_slice/stack", "Postprocessor/BatchMultiClassNonMaxSuppression/map/TensorArrayUnstack_5/strided_slice/stack_1", "Postprocessor/BatchMultiClassNonMaxSuppression/map/TensorArrayUnstack_5/strided_slice/stack_1"], "attr": {"shrink_axis_mask": {"i": "1"}, "ellipsis_mask": {"i": "0"}, "begin_mask": {"i": "0"}, "new_axis_mask": {"i": "0"}, "end_mask": {"i": "0"}, "T": {"type": "DT_INT32"}, "Index": {"type": "DT_INT32"}}}, {"name": "FeatureExtractor/MobilenetV2/Conv/act_quant/FakeQuantWithMinMaxVars", "op": "FakeQuantWithMinMaxVars", "input": ["FeatureExtractor/MobilenetV2/Conv/Relu6", "FeatureExtractor/MobilenetV2/expanded_conv_15/expand/act_quant/min", "FeatureExtractor/MobilenetV2/expanded_conv_15/expand/act_quant/max"], "attr": {"num_bits": {"i": "8"}, "narrow_range": {"b": false}}}, {"name": "Postprocessor/BatchMultiClassNonMaxSuppression/map/TensorArrayUnstack_3/range", "op": "Range", "input": ["Postprocessor/BatchMultiClassNonMaxSuppression/map/TensorArrayStack/range/start", "Postprocessor/BatchMultiClassNonMaxSuppression/map/TensorArrayUnstack_3/strided_slice", "Postprocessor/BatchMultiClassNonMaxSuppression/map/TensorArrayStack/range/delta"], "attr": {"Tidx": {"type": "DT_INT32"}}}, {"name": "FeatureExtractor/MobilenetV2/expanded_conv/depthwise/depthwise_Fold", "op": "DepthwiseConv2dNative", "input": ["FeatureExtractor/MobilenetV2/Conv/act_quant/FakeQuantWithMinMaxVars", "FeatureExtractor/MobilenetV2/expanded_conv/depthwise/weights_quant/FakeQuantWithMinMaxVars"], "attr": {"data_format": {"s": "TkhXQw=="}, "strides": {"list": {"i": ["1", "1", "1", "1"]}}, "dilations": {"list": {"i": ["1", "1", "1", "1"]}}, "padding": {"s": "U0FNRQ=="}, "T": {"type": "DT_FLOAT"}}}, {"name": "FeatureExtractor/MobilenetV2/expanded_conv/depthwise/add_fold", "op": "Add", "input": ["FeatureExtractor/MobilenetV2/expanded_conv/depthwise/BatchNorm_Fold/bias", "FeatureExtractor/MobilenetV2/expanded_conv/depthwise/depthwise_Fold"], "attr": {"T": {"type": "DT_FLOAT"}}}, {"name": "FeatureExtractor/MobilenetV2/expanded_conv/depthwise/Relu6", "op": "Relu6", "input": ["FeatureExtractor/MobilenetV2/expanded_conv/depthwise/add_fold"], "attr": {"T": {"type": "DT_FLOAT"}}}, {"name": "FeatureExtractor/MobilenetV2/expanded_conv/depthwise/act_quant/FakeQuantWithMinMaxVars", "op": "FakeQuantWithMinMaxVars", "input": ["FeatureExtractor/MobilenetV2/expanded_conv/depthwise/Relu6", "FeatureExtractor/MobilenetV2/expanded_conv_15/expand/act_quant/min", "FeatureExtractor/MobilenetV2/expanded_conv_15/expand/act_quant/max"], "attr": {"num_bits": {"i": "8"}, "narrow_range": {"b": false}}}, {"name": "FeatureExtractor/MobilenetV2/expanded_conv/project/Conv2D_Fold", "op": "Conv2D", "input": ["FeatureExtractor/MobilenetV2/expanded_conv/depthwise/act_quant/FakeQuantWithMinMaxVars", "FeatureExtractor/MobilenetV2/expanded_conv/project/weights_quant/FakeQuantWithMinMaxVars"], "device": "/device:CPU:0", "attr": {"dilations": {"list": {"i": ["1", "1", "1", "1"]}}, "T": {"type": "DT_FLOAT"}, "strides": {"list": {"i": ["1", "1", "1", "1"]}}, "data_format": {"s": "TkhXQw=="}, "explicit_paddings": {"list": {}}, "use_cudnn_on_gpu": {"b": true}, "padding": {"s": "U0FNRQ=="}}}, {"name": "FeatureExtractor/MobilenetV2/expanded_conv/project/add_fold", "op": "Add", "input": ["FeatureExtractor/MobilenetV2/expanded_conv/project/BatchNorm_Fold/bias", "FeatureExtractor/MobilenetV2/expanded_conv/project/Conv2D_Fold"], "attr": {"T": {"type": "DT_FLOAT"}}}, {"name": "FeatureExtractor/MobilenetV2/expanded_conv/project/act_quant/FakeQuantWithMinMaxVars", "op": "FakeQuantWithMinMaxVars", "input": ["FeatureExtractor/MobilenetV2/expanded_conv/project/add_fold", "FeatureExtractor/MobilenetV2/expanded_conv/project/act_quant/min", "FeatureExtractor/MobilenetV2/expanded_conv/project/act_quant/max"], "attr": {"num_bits": {"i": "8"}, "narrow_range": {"b": false}}}, {"name": "FeatureExtractor/MobilenetV2/expanded_conv_1/expand/Conv2D_Fold", "op": "Conv2D", "input": ["FeatureExtractor/MobilenetV2/expanded_conv/project/act_quant/FakeQuantWithMinMaxVars", "FeatureExtractor/MobilenetV2/expanded_conv_1/expand/weights_quant/FakeQuantWithMinMaxVars"], "device": "/device:CPU:0", "attr": {"dilations": {"list": {"i": ["1", "1", "1", "1"]}}, "T": {"type": "DT_FLOAT"}, "data_format": {"s": "TkhXQw=="}, "strides": {"list": {"i": ["1", "1", "1", "1"]}}, "use_cudnn_on_gpu": {"b": true}, "explicit_paddings": {"list": {}}, "padding": {"s": "U0FNRQ=="}}}, {"name": "FeatureExtractor/MobilenetV2/expanded_conv_1/expand/add_fold", "op": "Add", "input": ["FeatureExtractor/MobilenetV2/expanded_conv_1/expand/BatchNorm_Fold/bias", "FeatureExtractor/MobilenetV2/expanded_conv_1/expand/Conv2D_Fold"], "attr": {"T": {"type": "DT_FLOAT"}}}, {"name": "FeatureExtractor/MobilenetV2/expanded_conv_1/expand/Relu6", "op": "Relu6", "input": ["FeatureExtractor/MobilenetV2/expanded_conv_1/expand/add_fold"], "attr": {"T": {"type": "DT_FLOAT"}}}, {"name": "FeatureExtractor/MobilenetV2/expanded_conv_1/expand/act_quant/FakeQuantWithMinMaxVars", "op": "FakeQuantWithMinMaxVars", "input": ["FeatureExtractor/MobilenetV2/expanded_conv_1/expand/Relu6", "FeatureExtractor/MobilenetV2/expanded_conv_15/expand/act_quant/min", "FeatureExtractor/MobilenetV2/expanded_conv_15/expand/act_quant/max"], "attr": {"num_bits": {"i": "8"}, "narrow_range": {"b": false}}}, {"name": "FeatureExtractor/MobilenetV2/expanded_conv_1/depthwise/depthwise_Fold", "op": "DepthwiseConv2dNative", "input": ["FeatureExtractor/MobilenetV2/expanded_conv_1/expand/act_quant/FakeQuantWithMinMaxVars", "FeatureExtractor/MobilenetV2/expanded_conv_1/depthwise/weights_quant/FakeQuantWithMinMaxVars"], "attr": {"padding": {"s": "U0FNRQ=="}, "dilations": {"list": {"i": ["1", "1", "1", "1"]}}, "T": {"type": "DT_FLOAT"}, "data_format": {"s": "TkhXQw=="}, "strides": {"list": {"i": ["1", "2", "2", "1"]}}}}, {"name": "FeatureExtractor/MobilenetV2/expanded_conv_1/depthwise/add_fold", "op": "Add", "input": ["FeatureExtractor/MobilenetV2/expanded_conv_1/depthwise/BatchNorm_Fold/bias", "FeatureExtractor/MobilenetV2/expanded_conv_1/depthwise/depthwise_Fold"], "attr": {"T": {"type": "DT_FLOAT"}}}, {"name": "FeatureExtractor/MobilenetV2/expanded_conv_1/depthwise/Relu6", "op": "Relu6", "input": ["FeatureExtractor/MobilenetV2/expanded_conv_1/depthwise/add_fold"], "attr": {"T": {"type": "DT_FLOAT"}}}, {"name": "FeatureExtractor/MobilenetV2/expanded_conv_1/depthwise/act_quant/FakeQuantWithMinMaxVars", "op": "FakeQuantWithMinMaxVars", "input": ["FeatureExtractor/MobilenetV2/expanded_conv_1/depthwise/Relu6", "FeatureExtractor/MobilenetV2/expanded_conv_15/expand/act_quant/min", "FeatureExtractor/MobilenetV2/expanded_conv_15/expand/act_quant/max"], "attr": {"num_bits": {"i": "8"}, "narrow_range": {"b": false}}}, {"name": "FeatureExtractor/MobilenetV2/expanded_conv_1/project/Conv2D_Fold", "op": "Conv2D", "input": ["FeatureExtractor/MobilenetV2/expanded_conv_1/depthwise/act_quant/FakeQuantWithMinMaxVars", "FeatureExtractor/MobilenetV2/expanded_conv_1/project/weights_quant/FakeQuantWithMinMaxVars"], "device": "/device:CPU:0", "attr": {"dilations": {"list": {"i": ["1", "1", "1", "1"]}}, "T": {"type": "DT_FLOAT"}, "strides": {"list": {"i": ["1", "1", "1", "1"]}}, "data_format": {"s": "TkhXQw=="}, "explicit_paddings": {"list": {}}, "use_cudnn_on_gpu": {"b": true}, "padding": {"s": "U0FNRQ=="}}}, {"name": "FeatureExtractor/MobilenetV2/expanded_conv_1/project/add_fold", "op": "Add", "input": ["FeatureExtractor/MobilenetV2/expanded_conv_1/project/BatchNorm_Fold/bias", "FeatureExtractor/MobilenetV2/expanded_conv_1/project/Conv2D_Fold"], "attr": {"T": {"type": "DT_FLOAT"}}}, {"name": "FeatureExtractor/MobilenetV2/expanded_conv_1/project/act_quant/FakeQuantWithMinMaxVars", "op": "FakeQuantWithMinMaxVars", "input": ["FeatureExtractor/MobilenetV2/expanded_conv_1/project/add_fold", "FeatureExtractor/MobilenetV2/expanded_conv_1/project/act_quant/min", "FeatureExtractor/MobilenetV2/expanded_conv_1/project/act_quant/max"], "attr": {"num_bits": {"i": "8"}, "narrow_range": {"b": false}}}, {"name": "FeatureExtractor/MobilenetV2/expanded_conv_2/expand/Conv2D_Fold", "op": "Conv2D", "input": ["FeatureExtractor/MobilenetV2/expanded_conv_1/project/act_quant/FakeQuantWithMinMaxVars", "FeatureExtractor/MobilenetV2/expanded_conv_2/expand/weights_quant/FakeQuantWithMinMaxVars"], "device": "/device:CPU:0", "attr": {"dilations": {"list": {"i": ["1", "1", "1", "1"]}}, "T": {"type": "DT_FLOAT"}, "strides": {"list": {"i": ["1", "1", "1", "1"]}}, "data_format": {"s": "TkhXQw=="}, "explicit_paddings": {"list": {}}, "use_cudnn_on_gpu": {"b": true}, "padding": {"s": "U0FNRQ=="}}}, {"name": "FeatureExtractor/MobilenetV2/expanded_conv_2/expand/add_fold", "op": "Add", "input": ["FeatureExtractor/MobilenetV2/expanded_conv_2/expand/BatchNorm_Fold/bias", "FeatureExtractor/MobilenetV2/expanded_conv_2/expand/Conv2D_Fold"], "attr": {"T": {"type": "DT_FLOAT"}}}, {"name": "FeatureExtractor/MobilenetV2/expanded_conv_2/expand/Relu6", "op": "Relu6", "input": ["FeatureExtractor/MobilenetV2/expanded_conv_2/expand/add_fold"], "attr": {"T": {"type": "DT_FLOAT"}}}, {"name": "FeatureExtractor/MobilenetV2/expanded_conv_2/expand/act_quant/FakeQuantWithMinMaxVars", "op": "FakeQuantWithMinMaxVars", "input": ["FeatureExtractor/MobilenetV2/expanded_conv_2/expand/Relu6", "FeatureExtractor/MobilenetV2/expanded_conv_15/expand/act_quant/min", "FeatureExtractor/MobilenetV2/expanded_conv_15/expand/act_quant/max"], "attr": {"num_bits": {"i": "8"}, "narrow_range": {"b": false}}}, {"name": "FeatureExtractor/MobilenetV2/expanded_conv_2/depthwise/depthwise_Fold", "op": "DepthwiseConv2dNative", "input": ["FeatureExtractor/MobilenetV2/expanded_conv_2/expand/act_quant/FakeQuantWithMinMaxVars", "FeatureExtractor/MobilenetV2/expanded_conv_2/depthwise/weights_quant/FakeQuantWithMinMaxVars"], "attr": {"padding": {"s": "U0FNRQ=="}, "dilations": {"list": {"i": ["1", "1", "1", "1"]}}, "T": {"type": "DT_FLOAT"}, "strides": {"list": {"i": ["1", "1", "1", "1"]}}, "data_format": {"s": "TkhXQw=="}}}, {"name": "FeatureExtractor/MobilenetV2/expanded_conv_2/depthwise/add_fold", "op": "Add", "input": ["FeatureExtractor/MobilenetV2/expanded_conv_2/depthwise/BatchNorm_Fold/bias", "FeatureExtractor/MobilenetV2/expanded_conv_2/depthwise/depthwise_Fold"], "attr": {"T": {"type": "DT_FLOAT"}}}, {"name": "FeatureExtractor/MobilenetV2/expanded_conv_2/depthwise/Relu6", "op": "Relu6", "input": ["FeatureExtractor/MobilenetV2/expanded_conv_2/depthwise/add_fold"], "attr": {"T": {"type": "DT_FLOAT"}}}, {"name": "FeatureExtractor/MobilenetV2/expanded_conv_2/depthwise/act_quant/FakeQuantWithMinMaxVars", "op": "FakeQuantWithMinMaxVars", "input": ["FeatureExtractor/MobilenetV2/expanded_conv_2/depthwise/Relu6", "FeatureExtractor/MobilenetV2/expanded_conv_15/expand/act_quant/min", "FeatureExtractor/MobilenetV2/expanded_conv_15/expand/act_quant/max"], "attr": {"num_bits": {"i": "8"}, "narrow_range": {"b": false}}}, {"name": "FeatureExtractor/MobilenetV2/expanded_conv_2/project/Conv2D_Fold", "op": "Conv2D", "input": ["FeatureExtractor/MobilenetV2/expanded_conv_2/depthwise/act_quant/FakeQuantWithMinMaxVars", "FeatureExtractor/MobilenetV2/expanded_conv_2/project/weights_quant/FakeQuantWithMinMaxVars"], "device": "/device:CPU:0", "attr": {"dilations": {"list": {"i": ["1", "1", "1", "1"]}}, "T": {"type": "DT_FLOAT"}, "strides": {"list": {"i": ["1", "1", "1", "1"]}}, "data_format": {"s": "TkhXQw=="}, "explicit_paddings": {"list": {}}, "use_cudnn_on_gpu": {"b": true}, "padding": {"s": "U0FNRQ=="}}}, {"name": "FeatureExtractor/MobilenetV2/expanded_conv_2/project/add_fold", "op": "Add", "input": ["FeatureExtractor/MobilenetV2/expanded_conv_2/project/BatchNorm_Fold/bias", "FeatureExtractor/MobilenetV2/expanded_conv_2/project/Conv2D_Fold"], "attr": {"T": {"type": "DT_FLOAT"}}}, {"name": "FeatureExtractor/MobilenetV2/expanded_conv_2/project/act_quant/FakeQuantWithMinMaxVars", "op": "FakeQuantWithMinMaxVars", "input": ["FeatureExtractor/MobilenetV2/expanded_conv_2/project/add_fold", "FeatureExtractor/MobilenetV2/expanded_conv_2/project/act_quant/min", "FeatureExtractor/MobilenetV2/expanded_conv_2/project/act_quant/max"], "attr": {"num_bits": {"i": "8"}, "narrow_range": {"b": false}}}, {"name": "FeatureExtractor/MobilenetV2/expanded_conv_2/add", "op": "Add", "input": ["FeatureExtractor/MobilenetV2/expanded_conv_1/project/act_quant/FakeQuantWithMinMaxVars", "FeatureExtractor/MobilenetV2/expanded_conv_2/project/act_quant/FakeQuantWithMinMaxVars"], "attr": {"T": {"type": "DT_FLOAT"}}}, {"name": "FeatureExtractor/MobilenetV2/expanded_conv_2/post_activation_bypass_quant/FakeQuantWithMinMaxVars", "op": "FakeQuantWithMinMaxVars", "input": ["FeatureExtractor/MobilenetV2/expanded_conv_2/add", "FeatureExtractor/MobilenetV2/expanded_conv_2/post_activation_bypass_quant/min", "FeatureExtractor/MobilenetV2/expanded_conv_2/post_activation_bypass_quant/max"], "attr": {"num_bits": {"i": "8"}, "narrow_range": {"b": false}}}, {"name": "FeatureExtractor/MobilenetV2/expanded_conv_3/expand/Conv2D_Fold", "op": "Conv2D", "input": ["FeatureExtractor/MobilenetV2/expanded_conv_2/post_activation_bypass_quant/FakeQuantWithMinMaxVars", "FeatureExtractor/MobilenetV2/expanded_conv_3/expand/weights_quant/FakeQuantWithMinMaxVars"], "device": "/device:CPU:0", "attr": {"data_format": {"s": "TkhXQw=="}, "strides": {"list": {"i": ["1", "1", "1", "1"]}}, "use_cudnn_on_gpu": {"b": true}, "explicit_paddings": {"list": {}}, "padding": {"s": "U0FNRQ=="}, "dilations": {"list": {"i": ["1", "1", "1", "1"]}}, "T": {"type": "DT_FLOAT"}}}, {"name": "FeatureExtractor/MobilenetV2/expanded_conv_3/expand/add_fold", "op": "Add", "input": ["FeatureExtractor/MobilenetV2/expanded_conv_3/expand/BatchNorm_Fold/bias", "FeatureExtractor/MobilenetV2/expanded_conv_3/expand/Conv2D_Fold"], "attr": {"T": {"type": "DT_FLOAT"}}}, {"name": "FeatureExtractor/MobilenetV2/expanded_conv_3/expand/Relu6", "op": "Relu6", "input": ["FeatureExtractor/MobilenetV2/expanded_conv_3/expand/add_fold"], "attr": {"T": {"type": "DT_FLOAT"}}}, {"name": "FeatureExtractor/MobilenetV2/expanded_conv_3/expand/act_quant/FakeQuantWithMinMaxVars", "op": "FakeQuantWithMinMaxVars", "input": ["FeatureExtractor/MobilenetV2/expanded_conv_3/expand/Relu6", "FeatureExtractor/MobilenetV2/expanded_conv_15/expand/act_quant/min", "FeatureExtractor/MobilenetV2/expanded_conv_15/expand/act_quant/max"], "attr": {"num_bits": {"i": "8"}, "narrow_range": {"b": false}}}, {"name": "FeatureExtractor/MobilenetV2/expanded_conv_3/depthwise/depthwise_Fold", "op": "DepthwiseConv2dNative", "input": ["FeatureExtractor/MobilenetV2/expanded_conv_3/expand/act_quant/FakeQuantWithMinMaxVars", "FeatureExtractor/MobilenetV2/expanded_conv_3/depthwise/weights_quant/FakeQuantWithMinMaxVars"], "attr": {"dilations": {"list": {"i": ["1", "1", "1", "1"]}}, "padding": {"s": "U0FNRQ=="}, "T": {"type": "DT_FLOAT"}, "strides": {"list": {"i": ["1", "2", "2", "1"]}}, "data_format": {"s": "TkhXQw=="}}}, {"name": "FeatureExtractor/MobilenetV2/expanded_conv_3/depthwise/add_fold", "op": "Add", "input": ["FeatureExtractor/MobilenetV2/expanded_conv_3/depthwise/BatchNorm_Fold/bias", "FeatureExtractor/MobilenetV2/expanded_conv_3/depthwise/depthwise_Fold"], "attr": {"T": {"type": "DT_FLOAT"}}}, {"name": "FeatureExtractor/MobilenetV2/expanded_conv_3/depthwise/Relu6", "op": "Relu6", "input": ["FeatureExtractor/MobilenetV2/expanded_conv_3/depthwise/add_fold"], "attr": {"T": {"type": "DT_FLOAT"}}}, {"name": "FeatureExtractor/MobilenetV2/expanded_conv_3/depthwise/act_quant/FakeQuantWithMinMaxVars", "op": "FakeQuantWithMinMaxVars", "input": ["FeatureExtractor/MobilenetV2/expanded_conv_3/depthwise/Relu6", "FeatureExtractor/MobilenetV2/expanded_conv_15/expand/act_quant/min", "FeatureExtractor/MobilenetV2/expanded_conv_15/expand/act_quant/max"], "attr": {"num_bits": {"i": "8"}, "narrow_range": {"b": false}}}, {"name": "FeatureExtractor/MobilenetV2/expanded_conv_3/project/Conv2D_Fold", "op": "Conv2D", "input": ["FeatureExtractor/MobilenetV2/expanded_conv_3/depthwise/act_quant/FakeQuantWithMinMaxVars", "FeatureExtractor/MobilenetV2/expanded_conv_3/project/weights_quant/FakeQuantWithMinMaxVars"], "device": "/device:CPU:0", "attr": {"dilations": {"list": {"i": ["1", "1", "1", "1"]}}, "T": {"type": "DT_FLOAT"}, "strides": {"list": {"i": ["1", "1", "1", "1"]}}, "data_format": {"s": "TkhXQw=="}, "use_cudnn_on_gpu": {"b": true}, "explicit_paddings": {"list": {}}, "padding": {"s": "U0FNRQ=="}}}, {"name": "FeatureExtractor/MobilenetV2/expanded_conv_3/project/add_fold", "op": "Add", "input": ["FeatureExtractor/MobilenetV2/expanded_conv_3/project/BatchNorm_Fold/bias", "FeatureExtractor/MobilenetV2/expanded_conv_3/project/Conv2D_Fold"], "attr": {"T": {"type": "DT_FLOAT"}}}, {"name": "FeatureExtractor/MobilenetV2/expanded_conv_3/project/act_quant/FakeQuantWithMinMaxVars", "op": "FakeQuantWithMinMaxVars", "input": ["FeatureExtractor/MobilenetV2/expanded_conv_3/project/add_fold", "FeatureExtractor/MobilenetV2/expanded_conv_3/project/act_quant/min", "FeatureExtractor/MobilenetV2/expanded_conv_3/project/act_quant/max"], "attr": {"num_bits": {"i": "8"}, "narrow_range": {"b": false}}}, {"name": "FeatureExtractor/MobilenetV2/expanded_conv_4/expand/Conv2D_Fold", "op": "Conv2D", "input": ["FeatureExtractor/MobilenetV2/expanded_conv_3/project/act_quant/FakeQuantWithMinMaxVars", "FeatureExtractor/MobilenetV2/expanded_conv_4/expand/weights_quant/FakeQuantWithMinMaxVars"], "device": "/device:CPU:0", "attr": {"padding": {"s": "U0FNRQ=="}, "dilations": {"list": {"i": ["1", "1", "1", "1"]}}, "T": {"type": "DT_FLOAT"}, "data_format": {"s": "TkhXQw=="}, "strides": {"list": {"i": ["1", "1", "1", "1"]}}, "use_cudnn_on_gpu": {"b": true}, "explicit_paddings": {"list": {}}}}, {"name": "FeatureExtractor/MobilenetV2/expanded_conv_4/expand/add_fold", "op": "Add", "input": ["FeatureExtractor/MobilenetV2/expanded_conv_4/expand/BatchNorm_Fold/bias", "FeatureExtractor/MobilenetV2/expanded_conv_4/expand/Conv2D_Fold"], "attr": {"T": {"type": "DT_FLOAT"}}}, {"name": "FeatureExtractor/MobilenetV2/expanded_conv_4/expand/Relu6", "op": "Relu6", "input": ["FeatureExtractor/MobilenetV2/expanded_conv_4/expand/add_fold"], "attr": {"T": {"type": "DT_FLOAT"}}}, {"name": "FeatureExtractor/MobilenetV2/expanded_conv_4/expand/act_quant/FakeQuantWithMinMaxVars", "op": "FakeQuantWithMinMaxVars", "input": ["FeatureExtractor/MobilenetV2/expanded_conv_4/expand/Relu6", "FeatureExtractor/MobilenetV2/expanded_conv_15/expand/act_quant/min", "FeatureExtractor/MobilenetV2/expanded_conv_15/expand/act_quant/max"], "attr": {"num_bits": {"i": "8"}, "narrow_range": {"b": false}}}, {"name": "FeatureExtractor/MobilenetV2/expanded_conv_4/depthwise/depthwise_Fold", "op": "DepthwiseConv2dNative", "input": ["FeatureExtractor/MobilenetV2/expanded_conv_4/expand/act_quant/FakeQuantWithMinMaxVars", "FeatureExtractor/MobilenetV2/expanded_conv_4/depthwise/weights_quant/FakeQuantWithMinMaxVars"], "attr": {"strides": {"list": {"i": ["1", "1", "1", "1"]}}, "data_format": {"s": "TkhXQw=="}, "padding": {"s": "U0FNRQ=="}, "dilations": {"list": {"i": ["1", "1", "1", "1"]}}, "T": {"type": "DT_FLOAT"}}}, {"name": "FeatureExtractor/MobilenetV2/expanded_conv_4/depthwise/add_fold", "op": "Add", "input": ["FeatureExtractor/MobilenetV2/expanded_conv_4/depthwise/BatchNorm_Fold/bias", "FeatureExtractor/MobilenetV2/expanded_conv_4/depthwise/depthwise_Fold"], "attr": {"T": {"type": "DT_FLOAT"}}}, {"name": "FeatureExtractor/MobilenetV2/expanded_conv_4/depthwise/Relu6", "op": "Relu6", "input": ["FeatureExtractor/MobilenetV2/expanded_conv_4/depthwise/add_fold"], "attr": {"T": {"type": "DT_FLOAT"}}}, {"name": "FeatureExtractor/MobilenetV2/expanded_conv_4/depthwise/act_quant/FakeQuantWithMinMaxVars", "op": "FakeQuantWithMinMaxVars", "input": ["FeatureExtractor/MobilenetV2/expanded_conv_4/depthwise/Relu6", "FeatureExtractor/MobilenetV2/expanded_conv_15/expand/act_quant/min", "FeatureExtractor/MobilenetV2/expanded_conv_15/expand/act_quant/max"], "attr": {"num_bits": {"i": "8"}, "narrow_range": {"b": false}}}, {"name": "FeatureExtractor/MobilenetV2/expanded_conv_4/project/Conv2D_Fold", "op": "Conv2D", "input": ["FeatureExtractor/MobilenetV2/expanded_conv_4/depthwise/act_quant/FakeQuantWithMinMaxVars", "FeatureExtractor/MobilenetV2/expanded_conv_4/project/weights_quant/FakeQuantWithMinMaxVars"], "device": "/device:CPU:0", "attr": {"dilations": {"list": {"i": ["1", "1", "1", "1"]}}, "T": {"type": "DT_FLOAT"}, "data_format": {"s": "TkhXQw=="}, "strides": {"list": {"i": ["1", "1", "1", "1"]}}, "explicit_paddings": {"list": {}}, "use_cudnn_on_gpu": {"b": true}, "padding": {"s": "U0FNRQ=="}}}, {"name": "FeatureExtractor/MobilenetV2/expanded_conv_4/project/add_fold", "op": "Add", "input": ["FeatureExtractor/MobilenetV2/expanded_conv_4/project/BatchNorm_Fold/bias", "FeatureExtractor/MobilenetV2/expanded_conv_4/project/Conv2D_Fold"], "attr": {"T": {"type": "DT_FLOAT"}}}, {"name": "FeatureExtractor/MobilenetV2/expanded_conv_4/project/act_quant/FakeQuantWithMinMaxVars", "op": "FakeQuantWithMinMaxVars", "input": ["FeatureExtractor/MobilenetV2/expanded_conv_4/project/add_fold", "FeatureExtractor/MobilenetV2/expanded_conv_4/project/act_quant/min", "FeatureExtractor/MobilenetV2/expanded_conv_4/project/act_quant/max"], "attr": {"num_bits": {"i": "8"}, "narrow_range": {"b": false}}}, {"name": "FeatureExtractor/MobilenetV2/expanded_conv_4/add", "op": "Add", "input": ["FeatureExtractor/MobilenetV2/expanded_conv_3/project/act_quant/FakeQuantWithMinMaxVars", "FeatureExtractor/MobilenetV2/expanded_conv_4/project/act_quant/FakeQuantWithMinMaxVars"], "attr": {"T": {"type": "DT_FLOAT"}}}, {"name": "FeatureExtractor/MobilenetV2/expanded_conv_4/post_activation_bypass_quant/FakeQuantWithMinMaxVars", "op": "FakeQuantWithMinMaxVars", "input": ["FeatureExtractor/MobilenetV2/expanded_conv_4/add", "FeatureExtractor/MobilenetV2/expanded_conv_4/post_activation_bypass_quant/min", "FeatureExtractor/MobilenetV2/expanded_conv_4/post_activation_bypass_quant/max"], "attr": {"num_bits": {"i": "8"}, "narrow_range": {"b": false}}}, {"name": "FeatureExtractor/MobilenetV2/expanded_conv_5/expand/Conv2D_Fold", "op": "Conv2D", "input": ["FeatureExtractor/MobilenetV2/expanded_conv_4/post_activation_bypass_quant/FakeQuantWithMinMaxVars", "FeatureExtractor/MobilenetV2/expanded_conv_5/expand/weights_quant/FakeQuantWithMinMaxVars"], "device": "/device:CPU:0", "attr": {"dilations": {"list": {"i": ["1", "1", "1", "1"]}}, "T": {"type": "DT_FLOAT"}, "strides": {"list": {"i": ["1", "1", "1", "1"]}}, "data_format": {"s": "TkhXQw=="}, "use_cudnn_on_gpu": {"b": true}, "explicit_paddings": {"list": {}}, "padding": {"s": "U0FNRQ=="}}}, {"name": "FeatureExtractor/MobilenetV2/expanded_conv_5/expand/add_fold", "op": "Add", "input": ["FeatureExtractor/MobilenetV2/expanded_conv_5/expand/BatchNorm_Fold/bias", "FeatureExtractor/MobilenetV2/expanded_conv_5/expand/Conv2D_Fold"], "attr": {"T": {"type": "DT_FLOAT"}}}, {"name": "FeatureExtractor/MobilenetV2/expanded_conv_5/expand/Relu6", "op": "Relu6", "input": ["FeatureExtractor/MobilenetV2/expanded_conv_5/expand/add_fold"], "attr": {"T": {"type": "DT_FLOAT"}}}, {"name": "FeatureExtractor/MobilenetV2/expanded_conv_5/expand/act_quant/FakeQuantWithMinMaxVars", "op": "FakeQuantWithMinMaxVars", "input": ["FeatureExtractor/MobilenetV2/expanded_conv_5/expand/Relu6", "FeatureExtractor/MobilenetV2/expanded_conv_15/expand/act_quant/min", "FeatureExtractor/MobilenetV2/expanded_conv_15/expand/act_quant/max"], "attr": {"num_bits": {"i": "8"}, "narrow_range": {"b": false}}}, {"name": "FeatureExtractor/MobilenetV2/expanded_conv_5/depthwise/depthwise_Fold", "op": "DepthwiseConv2dNative", "input": ["FeatureExtractor/MobilenetV2/expanded_conv_5/expand/act_quant/FakeQuantWithMinMaxVars", "FeatureExtractor/MobilenetV2/expanded_conv_5/depthwise/weights_quant/FakeQuantWithMinMaxVars"], "attr": {"data_format": {"s": "TkhXQw=="}, "strides": {"list": {"i": ["1", "1", "1", "1"]}}, "padding": {"s": "U0FNRQ=="}, "dilations": {"list": {"i": ["1", "1", "1", "1"]}}, "T": {"type": "DT_FLOAT"}}}, {"name": "FeatureExtractor/MobilenetV2/expanded_conv_5/depthwise/add_fold", "op": "Add", "input": ["FeatureExtractor/MobilenetV2/expanded_conv_5/depthwise/BatchNorm_Fold/bias", "FeatureExtractor/MobilenetV2/expanded_conv_5/depthwise/depthwise_Fold"], "attr": {"T": {"type": "DT_FLOAT"}}}, {"name": "FeatureExtractor/MobilenetV2/expanded_conv_5/depthwise/Relu6", "op": "Relu6", "input": ["FeatureExtractor/MobilenetV2/expanded_conv_5/depthwise/add_fold"], "attr": {"T": {"type": "DT_FLOAT"}}}, {"name": "FeatureExtractor/MobilenetV2/expanded_conv_5/depthwise/act_quant/FakeQuantWithMinMaxVars", "op": "FakeQuantWithMinMaxVars", "input": ["FeatureExtractor/MobilenetV2/expanded_conv_5/depthwise/Relu6", "FeatureExtractor/MobilenetV2/expanded_conv_15/expand/act_quant/min", "FeatureExtractor/MobilenetV2/expanded_conv_15/expand/act_quant/max"], "attr": {"num_bits": {"i": "8"}, "narrow_range": {"b": false}}}, {"name": "FeatureExtractor/MobilenetV2/expanded_conv_5/project/Conv2D_Fold", "op": "Conv2D", "input": ["FeatureExtractor/MobilenetV2/expanded_conv_5/depthwise/act_quant/FakeQuantWithMinMaxVars", "FeatureExtractor/MobilenetV2/expanded_conv_5/project/weights_quant/FakeQuantWithMinMaxVars"], "device": "/device:CPU:0", "attr": {"padding": {"s": "U0FNRQ=="}, "dilations": {"list": {"i": ["1", "1", "1", "1"]}}, "T": {"type": "DT_FLOAT"}, "data_format": {"s": "TkhXQw=="}, "strides": {"list": {"i": ["1", "1", "1", "1"]}}, "use_cudnn_on_gpu": {"b": true}, "explicit_paddings": {"list": {}}}}, {"name": "FeatureExtractor/MobilenetV2/expanded_conv_5/project/add_fold", "op": "Add", "input": ["FeatureExtractor/MobilenetV2/expanded_conv_5/project/BatchNorm_Fold/bias", "FeatureExtractor/MobilenetV2/expanded_conv_5/project/Conv2D_Fold"], "attr": {"T": {"type": "DT_FLOAT"}}}, {"name": "FeatureExtractor/MobilenetV2/expanded_conv_5/project/act_quant/FakeQuantWithMinMaxVars", "op": "FakeQuantWithMinMaxVars", "input": ["FeatureExtractor/MobilenetV2/expanded_conv_5/project/add_fold", "FeatureExtractor/MobilenetV2/expanded_conv_5/project/act_quant/min", "FeatureExtractor/MobilenetV2/expanded_conv_5/project/act_quant/max"], "attr": {"num_bits": {"i": "8"}, "narrow_range": {"b": false}}}, {"name": "FeatureExtractor/MobilenetV2/expanded_conv_5/add", "op": "Add", "input": ["FeatureExtractor/MobilenetV2/expanded_conv_4/post_activation_bypass_quant/FakeQuantWithMinMaxVars", "FeatureExtractor/MobilenetV2/expanded_conv_5/project/act_quant/FakeQuantWithMinMaxVars"], "attr": {"T": {"type": "DT_FLOAT"}}}, {"name": "FeatureExtractor/MobilenetV2/expanded_conv_5/post_activation_bypass_quant/FakeQuantWithMinMaxVars", "op": "FakeQuantWithMinMaxVars", "input": ["FeatureExtractor/MobilenetV2/expanded_conv_5/add", "FeatureExtractor/MobilenetV2/expanded_conv_5/post_activation_bypass_quant/min", "FeatureExtractor/MobilenetV2/expanded_conv_5/post_activation_bypass_quant/max"], "attr": {"num_bits": {"i": "8"}, "narrow_range": {"b": false}}}, {"name": "FeatureExtractor/MobilenetV2/expanded_conv_6/expand/Conv2D_Fold", "op": "Conv2D", "input": ["FeatureExtractor/MobilenetV2/expanded_conv_5/post_activation_bypass_quant/FakeQuantWithMinMaxVars", "FeatureExtractor/MobilenetV2/expanded_conv_6/expand/weights_quant/FakeQuantWithMinMaxVars"], "device": "/device:CPU:0", "attr": {"padding": {"s": "U0FNRQ=="}, "dilations": {"list": {"i": ["1", "1", "1", "1"]}}, "T": {"type": "DT_FLOAT"}, "data_format": {"s": "TkhXQw=="}, "strides": {"list": {"i": ["1", "1", "1", "1"]}}, "use_cudnn_on_gpu": {"b": true}, "explicit_paddings": {"list": {}}}}, {"name": "FeatureExtractor/MobilenetV2/expanded_conv_6/expand/add_fold", "op": "Add", "input": ["FeatureExtractor/MobilenetV2/expanded_conv_6/expand/BatchNorm_Fold/bias", "FeatureExtractor/MobilenetV2/expanded_conv_6/expand/Conv2D_Fold"], "attr": {"T": {"type": "DT_FLOAT"}}}, {"name": "FeatureExtractor/MobilenetV2/expanded_conv_6/expand/Relu6", "op": "Relu6", "input": ["FeatureExtractor/MobilenetV2/expanded_conv_6/expand/add_fold"], "attr": {"T": {"type": "DT_FLOAT"}}}, {"name": "FeatureExtractor/MobilenetV2/expanded_conv_6/expand/act_quant/FakeQuantWithMinMaxVars", "op": "FakeQuantWithMinMaxVars", "input": ["FeatureExtractor/MobilenetV2/expanded_conv_6/expand/Relu6", "FeatureExtractor/MobilenetV2/expanded_conv_15/expand/act_quant/min", "FeatureExtractor/MobilenetV2/expanded_conv_15/expand/act_quant/max"], "attr": {"num_bits": {"i": "8"}, "narrow_range": {"b": false}}}, {"name": "FeatureExtractor/MobilenetV2/expanded_conv_6/depthwise/depthwise_Fold", "op": "DepthwiseConv2dNative", "input": ["FeatureExtractor/MobilenetV2/expanded_conv_6/expand/act_quant/FakeQuantWithMinMaxVars", "FeatureExtractor/MobilenetV2/expanded_conv_6/depthwise/weights_quant/FakeQuantWithMinMaxVars"], "attr": {"padding": {"s": "U0FNRQ=="}, "dilations": {"list": {"i": ["1", "1", "1", "1"]}}, "T": {"type": "DT_FLOAT"}, "data_format": {"s": "TkhXQw=="}, "strides": {"list": {"i": ["1", "2", "2", "1"]}}}}, {"name": "FeatureExtractor/MobilenetV2/expanded_conv_6/depthwise/add_fold", "op": "Add", "input": ["FeatureExtractor/MobilenetV2/expanded_conv_6/depthwise/BatchNorm_Fold/bias", "FeatureExtractor/MobilenetV2/expanded_conv_6/depthwise/depthwise_Fold"], "attr": {"T": {"type": "DT_FLOAT"}}}, {"name": "FeatureExtractor/MobilenetV2/expanded_conv_6/depthwise/Relu6", "op": "Relu6", "input": ["FeatureExtractor/MobilenetV2/expanded_conv_6/depthwise/add_fold"], "attr": {"T": {"type": "DT_FLOAT"}}}, {"name": "FeatureExtractor/MobilenetV2/expanded_conv_6/depthwise/act_quant/FakeQuantWithMinMaxVars", "op": "FakeQuantWithMinMaxVars", "input": ["FeatureExtractor/MobilenetV2/expanded_conv_6/depthwise/Relu6", "FeatureExtractor/MobilenetV2/expanded_conv_15/expand/act_quant/min", "FeatureExtractor/MobilenetV2/expanded_conv_15/expand/act_quant/max"], "attr": {"num_bits": {"i": "8"}, "narrow_range": {"b": false}}}, {"name": "FeatureExtractor/MobilenetV2/expanded_conv_6/project/Conv2D_Fold", "op": "Conv2D", "input": ["FeatureExtractor/MobilenetV2/expanded_conv_6/depthwise/act_quant/FakeQuantWithMinMaxVars", "FeatureExtractor/MobilenetV2/expanded_conv_6/project/weights_quant/FakeQuantWithMinMaxVars"], "device": "/device:CPU:0", "attr": {"dilations": {"list": {"i": ["1", "1", "1", "1"]}}, "T": {"type": "DT_FLOAT"}, "strides": {"list": {"i": ["1", "1", "1", "1"]}}, "data_format": {"s": "TkhXQw=="}, "use_cudnn_on_gpu": {"b": true}, "explicit_paddings": {"list": {}}, "padding": {"s": "U0FNRQ=="}}}, {"name": "FeatureExtractor/MobilenetV2/expanded_conv_6/project/add_fold", "op": "Add", "input": ["FeatureExtractor/MobilenetV2/expanded_conv_6/project/BatchNorm_Fold/bias", "FeatureExtractor/MobilenetV2/expanded_conv_6/project/Conv2D_Fold"], "attr": {"T": {"type": "DT_FLOAT"}}}, {"name": "FeatureExtractor/MobilenetV2/expanded_conv_6/project/act_quant/FakeQuantWithMinMaxVars", "op": "FakeQuantWithMinMaxVars", "input": ["FeatureExtractor/MobilenetV2/expanded_conv_6/project/add_fold", "FeatureExtractor/MobilenetV2/expanded_conv_6/project/act_quant/min", "FeatureExtractor/MobilenetV2/expanded_conv_6/project/act_quant/max"], "attr": {"num_bits": {"i": "8"}, "narrow_range": {"b": false}}}, {"name": "FeatureExtractor/MobilenetV2/expanded_conv_7/expand/Conv2D_Fold", "op": "Conv2D", "input": ["FeatureExtractor/MobilenetV2/expanded_conv_6/project/act_quant/FakeQuantWithMinMaxVars", "FeatureExtractor/MobilenetV2/expanded_conv_7/expand/weights_quant/FakeQuantWithMinMaxVars"], "device": "/device:CPU:0", "attr": {"dilations": {"list": {"i": ["1", "1", "1", "1"]}}, "T": {"type": "DT_FLOAT"}, "data_format": {"s": "TkhXQw=="}, "strides": {"list": {"i": ["1", "1", "1", "1"]}}, "explicit_paddings": {"list": {}}, "use_cudnn_on_gpu": {"b": true}, "padding": {"s": "U0FNRQ=="}}}, {"name": "FeatureExtractor/MobilenetV2/expanded_conv_7/expand/add_fold", "op": "Add", "input": ["FeatureExtractor/MobilenetV2/expanded_conv_7/expand/BatchNorm_Fold/bias", "FeatureExtractor/MobilenetV2/expanded_conv_7/expand/Conv2D_Fold"], "attr": {"T": {"type": "DT_FLOAT"}}}, {"name": "FeatureExtractor/MobilenetV2/expanded_conv_7/expand/Relu6", "op": "Relu6", "input": ["FeatureExtractor/MobilenetV2/expanded_conv_7/expand/add_fold"], "attr": {"T": {"type": "DT_FLOAT"}}}, {"name": "FeatureExtractor/MobilenetV2/expanded_conv_7/expand/act_quant/FakeQuantWithMinMaxVars", "op": "FakeQuantWithMinMaxVars", "input": ["FeatureExtractor/MobilenetV2/expanded_conv_7/expand/Relu6", "FeatureExtractor/MobilenetV2/expanded_conv_15/expand/act_quant/min", "FeatureExtractor/MobilenetV2/expanded_conv_15/expand/act_quant/max"], "attr": {"num_bits": {"i": "8"}, "narrow_range": {"b": false}}}, {"name": "FeatureExtractor/MobilenetV2/expanded_conv_7/depthwise/depthwise_Fold", "op": "DepthwiseConv2dNative", "input": ["FeatureExtractor/MobilenetV2/expanded_conv_7/expand/act_quant/FakeQuantWithMinMaxVars", "FeatureExtractor/MobilenetV2/expanded_conv_7/depthwise/weights_quant/FakeQuantWithMinMaxVars"], "attr": {"strides": {"list": {"i": ["1", "1", "1", "1"]}}, "data_format": {"s": "TkhXQw=="}, "padding": {"s": "U0FNRQ=="}, "dilations": {"list": {"i": ["1", "1", "1", "1"]}}, "T": {"type": "DT_FLOAT"}}}, {"name": "FeatureExtractor/MobilenetV2/expanded_conv_7/depthwise/add_fold", "op": "Add", "input": ["FeatureExtractor/MobilenetV2/expanded_conv_7/depthwise/BatchNorm_Fold/bias", "FeatureExtractor/MobilenetV2/expanded_conv_7/depthwise/depthwise_Fold"], "attr": {"T": {"type": "DT_FLOAT"}}}, {"name": "FeatureExtractor/MobilenetV2/expanded_conv_7/depthwise/Relu6", "op": "Relu6", "input": ["FeatureExtractor/MobilenetV2/expanded_conv_7/depthwise/add_fold"], "attr": {"T": {"type": "DT_FLOAT"}}}, {"name": "FeatureExtractor/MobilenetV2/expanded_conv_7/depthwise/act_quant/FakeQuantWithMinMaxVars", "op": "FakeQuantWithMinMaxVars", "input": ["FeatureExtractor/MobilenetV2/expanded_conv_7/depthwise/Relu6", "FeatureExtractor/MobilenetV2/expanded_conv_15/expand/act_quant/min", "FeatureExtractor/MobilenetV2/expanded_conv_15/expand/act_quant/max"], "attr": {"num_bits": {"i": "8"}, "narrow_range": {"b": false}}}, {"name": "FeatureExtractor/MobilenetV2/expanded_conv_7/project/Conv2D_Fold", "op": "Conv2D", "input": ["FeatureExtractor/MobilenetV2/expanded_conv_7/depthwise/act_quant/FakeQuantWithMinMaxVars", "FeatureExtractor/MobilenetV2/expanded_conv_7/project/weights_quant/FakeQuantWithMinMaxVars"], "device": "/device:CPU:0", "attr": {"dilations": {"list": {"i": ["1", "1", "1", "1"]}}, "T": {"type": "DT_FLOAT"}, "strides": {"list": {"i": ["1", "1", "1", "1"]}}, "data_format": {"s": "TkhXQw=="}, "use_cudnn_on_gpu": {"b": true}, "explicit_paddings": {"list": {}}, "padding": {"s": "U0FNRQ=="}}}, {"name": "FeatureExtractor/MobilenetV2/expanded_conv_7/project/add_fold", "op": "Add", "input": ["FeatureExtractor/MobilenetV2/expanded_conv_7/project/BatchNorm_Fold/bias", "FeatureExtractor/MobilenetV2/expanded_conv_7/project/Conv2D_Fold"], "attr": {"T": {"type": "DT_FLOAT"}}}, {"name": "FeatureExtractor/MobilenetV2/expanded_conv_7/project/act_quant/FakeQuantWithMinMaxVars", "op": "FakeQuantWithMinMaxVars", "input": ["FeatureExtractor/MobilenetV2/expanded_conv_7/project/add_fold", "FeatureExtractor/MobilenetV2/expanded_conv_7/project/act_quant/min", "FeatureExtractor/MobilenetV2/expanded_conv_7/project/act_quant/max"], "attr": {"num_bits": {"i": "8"}, "narrow_range": {"b": false}}}, {"name": "FeatureExtractor/MobilenetV2/expanded_conv_7/add", "op": "Add", "input": ["FeatureExtractor/MobilenetV2/expanded_conv_6/project/act_quant/FakeQuantWithMinMaxVars", "FeatureExtractor/MobilenetV2/expanded_conv_7/project/act_quant/FakeQuantWithMinMaxVars"], "attr": {"T": {"type": "DT_FLOAT"}}}, {"name": "FeatureExtractor/MobilenetV2/expanded_conv_7/post_activation_bypass_quant/FakeQuantWithMinMaxVars", "op": "FakeQuantWithMinMaxVars", "input": ["FeatureExtractor/MobilenetV2/expanded_conv_7/add", "FeatureExtractor/MobilenetV2/expanded_conv_7/post_activation_bypass_quant/min", "FeatureExtractor/MobilenetV2/expanded_conv_7/post_activation_bypass_quant/max"], "attr": {"num_bits": {"i": "8"}, "narrow_range": {"b": false}}}, {"name": "FeatureExtractor/MobilenetV2/expanded_conv_8/expand/Conv2D_Fold", "op": "Conv2D", "input": ["FeatureExtractor/MobilenetV2/expanded_conv_7/post_activation_bypass_quant/FakeQuantWithMinMaxVars", "FeatureExtractor/MobilenetV2/expanded_conv_8/expand/weights_quant/FakeQuantWithMinMaxVars"], "device": "/device:CPU:0", "attr": {"strides": {"list": {"i": ["1", "1", "1", "1"]}}, "data_format": {"s": "TkhXQw=="}, "use_cudnn_on_gpu": {"b": true}, "explicit_paddings": {"list": {}}, "padding": {"s": "U0FNRQ=="}, "dilations": {"list": {"i": ["1", "1", "1", "1"]}}, "T": {"type": "DT_FLOAT"}}}, {"name": "FeatureExtractor/MobilenetV2/expanded_conv_8/expand/add_fold", "op": "Add", "input": ["FeatureExtractor/MobilenetV2/expanded_conv_8/expand/BatchNorm_Fold/bias", "FeatureExtractor/MobilenetV2/expanded_conv_8/expand/Conv2D_Fold"], "attr": {"T": {"type": "DT_FLOAT"}}}, {"name": "FeatureExtractor/MobilenetV2/expanded_conv_8/expand/Relu6", "op": "Relu6", "input": ["FeatureExtractor/MobilenetV2/expanded_conv_8/expand/add_fold"], "attr": {"T": {"type": "DT_FLOAT"}}}, {"name": "FeatureExtractor/MobilenetV2/expanded_conv_8/expand/act_quant/FakeQuantWithMinMaxVars", "op": "FakeQuantWithMinMaxVars", "input": ["FeatureExtractor/MobilenetV2/expanded_conv_8/expand/Relu6", "FeatureExtractor/MobilenetV2/expanded_conv_15/expand/act_quant/min", "FeatureExtractor/MobilenetV2/expanded_conv_15/expand/act_quant/max"], "attr": {"num_bits": {"i": "8"}, "narrow_range": {"b": false}}}, {"name": "FeatureExtractor/MobilenetV2/expanded_conv_8/depthwise/depthwise_Fold", "op": "DepthwiseConv2dNative", "input": ["FeatureExtractor/MobilenetV2/expanded_conv_8/expand/act_quant/FakeQuantWithMinMaxVars", "FeatureExtractor/MobilenetV2/expanded_conv_8/depthwise/weights_quant/FakeQuantWithMinMaxVars"], "attr": {"dilations": {"list": {"i": ["1", "1", "1", "1"]}}, "padding": {"s": "U0FNRQ=="}, "T": {"type": "DT_FLOAT"}, "data_format": {"s": "TkhXQw=="}, "strides": {"list": {"i": ["1", "1", "1", "1"]}}}}, {"name": "FeatureExtractor/MobilenetV2/expanded_conv_8/depthwise/add_fold", "op": "Add", "input": ["FeatureExtractor/MobilenetV2/expanded_conv_8/depthwise/BatchNorm_Fold/bias", "FeatureExtractor/MobilenetV2/expanded_conv_8/depthwise/depthwise_Fold"], "attr": {"T": {"type": "DT_FLOAT"}}}, {"name": "FeatureExtractor/MobilenetV2/expanded_conv_8/depthwise/Relu6", "op": "Relu6", "input": ["FeatureExtractor/MobilenetV2/expanded_conv_8/depthwise/add_fold"], "attr": {"T": {"type": "DT_FLOAT"}}}, {"name": "FeatureExtractor/MobilenetV2/expanded_conv_8/depthwise/act_quant/FakeQuantWithMinMaxVars", "op": "FakeQuantWithMinMaxVars", "input": ["FeatureExtractor/MobilenetV2/expanded_conv_8/depthwise/Relu6", "FeatureExtractor/MobilenetV2/expanded_conv_15/expand/act_quant/min", "FeatureExtractor/MobilenetV2/expanded_conv_15/expand/act_quant/max"], "attr": {"num_bits": {"i": "8"}, "narrow_range": {"b": false}}}, {"name": "FeatureExtractor/MobilenetV2/expanded_conv_8/project/Conv2D_Fold", "op": "Conv2D", "input": ["FeatureExtractor/MobilenetV2/expanded_conv_8/depthwise/act_quant/FakeQuantWithMinMaxVars", "FeatureExtractor/MobilenetV2/expanded_conv_8/project/weights_quant/FakeQuantWithMinMaxVars"], "device": "/device:CPU:0", "attr": {"dilations": {"list": {"i": ["1", "1", "1", "1"]}}, "T": {"type": "DT_FLOAT"}, "data_format": {"s": "TkhXQw=="}, "strides": {"list": {"i": ["1", "1", "1", "1"]}}, "explicit_paddings": {"list": {}}, "use_cudnn_on_gpu": {"b": true}, "padding": {"s": "U0FNRQ=="}}}, {"name": "FeatureExtractor/MobilenetV2/expanded_conv_8/project/add_fold", "op": "Add", "input": ["FeatureExtractor/MobilenetV2/expanded_conv_8/project/BatchNorm_Fold/bias", "FeatureExtractor/MobilenetV2/expanded_conv_8/project/Conv2D_Fold"], "attr": {"T": {"type": "DT_FLOAT"}}}, {"name": "FeatureExtractor/MobilenetV2/expanded_conv_8/project/act_quant/FakeQuantWithMinMaxVars", "op": "FakeQuantWithMinMaxVars", "input": ["FeatureExtractor/MobilenetV2/expanded_conv_8/project/add_fold", "FeatureExtractor/MobilenetV2/expanded_conv_8/project/act_quant/min", "FeatureExtractor/MobilenetV2/expanded_conv_8/project/act_quant/max"], "attr": {"num_bits": {"i": "8"}, "narrow_range": {"b": false}}}, {"name": "FeatureExtractor/MobilenetV2/expanded_conv_8/add", "op": "Add", "input": ["FeatureExtractor/MobilenetV2/expanded_conv_7/post_activation_bypass_quant/FakeQuantWithMinMaxVars", "FeatureExtractor/MobilenetV2/expanded_conv_8/project/act_quant/FakeQuantWithMinMaxVars"], "attr": {"T": {"type": "DT_FLOAT"}}}, {"name": "FeatureExtractor/MobilenetV2/expanded_conv_8/post_activation_bypass_quant/FakeQuantWithMinMaxVars", "op": "FakeQuantWithMinMaxVars", "input": ["FeatureExtractor/MobilenetV2/expanded_conv_8/add", "FeatureExtractor/MobilenetV2/expanded_conv_8/post_activation_bypass_quant/min", "FeatureExtractor/MobilenetV2/expanded_conv_8/post_activation_bypass_quant/max"], "attr": {"num_bits": {"i": "8"}, "narrow_range": {"b": false}}}, {"name": "FeatureExtractor/MobilenetV2/expanded_conv_9/expand/Conv2D_Fold", "op": "Conv2D", "input": ["FeatureExtractor/MobilenetV2/expanded_conv_8/post_activation_bypass_quant/FakeQuantWithMinMaxVars", "FeatureExtractor/MobilenetV2/expanded_conv_9/expand/weights_quant/FakeQuantWithMinMaxVars"], "device": "/device:CPU:0", "attr": {"dilations": {"list": {"i": ["1", "1", "1", "1"]}}, "T": {"type": "DT_FLOAT"}, "strides": {"list": {"i": ["1", "1", "1", "1"]}}, "data_format": {"s": "TkhXQw=="}, "explicit_paddings": {"list": {}}, "use_cudnn_on_gpu": {"b": true}, "padding": {"s": "U0FNRQ=="}}}, {"name": "FeatureExtractor/MobilenetV2/expanded_conv_9/expand/add_fold", "op": "Add", "input": ["FeatureExtractor/MobilenetV2/expanded_conv_9/expand/BatchNorm_Fold/bias", "FeatureExtractor/MobilenetV2/expanded_conv_9/expand/Conv2D_Fold"], "attr": {"T": {"type": "DT_FLOAT"}}}, {"name": "FeatureExtractor/MobilenetV2/expanded_conv_9/expand/Relu6", "op": "Relu6", "input": ["FeatureExtractor/MobilenetV2/expanded_conv_9/expand/add_fold"], "attr": {"T": {"type": "DT_FLOAT"}}}, {"name": "FeatureExtractor/MobilenetV2/expanded_conv_9/expand/act_quant/FakeQuantWithMinMaxVars", "op": "FakeQuantWithMinMaxVars", "input": ["FeatureExtractor/MobilenetV2/expanded_conv_9/expand/Relu6", "FeatureExtractor/MobilenetV2/expanded_conv_15/expand/act_quant/min", "FeatureExtractor/MobilenetV2/expanded_conv_15/expand/act_quant/max"], "attr": {"num_bits": {"i": "8"}, "narrow_range": {"b": false}}}, {"name": "FeatureExtractor/MobilenetV2/expanded_conv_9/depthwise/depthwise_Fold", "op": "DepthwiseConv2dNative", "input": ["FeatureExtractor/MobilenetV2/expanded_conv_9/expand/act_quant/FakeQuantWithMinMaxVars", "FeatureExtractor/MobilenetV2/expanded_conv_9/depthwise/weights_quant/FakeQuantWithMinMaxVars"], "attr": {"strides": {"list": {"i": ["1", "1", "1", "1"]}}, "data_format": {"s": "TkhXQw=="}, "dilations": {"list": {"i": ["1", "1", "1", "1"]}}, "padding": {"s": "U0FNRQ=="}, "T": {"type": "DT_FLOAT"}}}, {"name": "FeatureExtractor/MobilenetV2/expanded_conv_9/depthwise/add_fold", "op": "Add", "input": ["FeatureExtractor/MobilenetV2/expanded_conv_9/depthwise/BatchNorm_Fold/bias", "FeatureExtractor/MobilenetV2/expanded_conv_9/depthwise/depthwise_Fold"], "attr": {"T": {"type": "DT_FLOAT"}}}, {"name": "FeatureExtractor/MobilenetV2/expanded_conv_9/depthwise/Relu6", "op": "Relu6", "input": ["FeatureExtractor/MobilenetV2/expanded_conv_9/depthwise/add_fold"], "attr": {"T": {"type": "DT_FLOAT"}}}, {"name": "FeatureExtractor/MobilenetV2/expanded_conv_9/depthwise/act_quant/FakeQuantWithMinMaxVars", "op": "FakeQuantWithMinMaxVars", "input": ["FeatureExtractor/MobilenetV2/expanded_conv_9/depthwise/Relu6", "FeatureExtractor/MobilenetV2/expanded_conv_15/expand/act_quant/min", "FeatureExtractor/MobilenetV2/expanded_conv_15/expand/act_quant/max"], "attr": {"num_bits": {"i": "8"}, "narrow_range": {"b": false}}}, {"name": "FeatureExtractor/MobilenetV2/expanded_conv_9/project/Conv2D_Fold", "op": "Conv2D", "input": ["FeatureExtractor/MobilenetV2/expanded_conv_9/depthwise/act_quant/FakeQuantWithMinMaxVars", "FeatureExtractor/MobilenetV2/expanded_conv_9/project/weights_quant/FakeQuantWithMinMaxVars"], "device": "/device:CPU:0", "attr": {"T": {"type": "DT_FLOAT"}, "strides": {"list": {"i": ["1", "1", "1", "1"]}}, "data_format": {"s": "TkhXQw=="}, "use_cudnn_on_gpu": {"b": true}, "explicit_paddings": {"list": {}}, "padding": {"s": "U0FNRQ=="}, "dilations": {"list": {"i": ["1", "1", "1", "1"]}}}}, {"name": "FeatureExtractor/MobilenetV2/expanded_conv_9/project/add_fold", "op": "Add", "input": ["FeatureExtractor/MobilenetV2/expanded_conv_9/project/BatchNorm_Fold/bias", "FeatureExtractor/MobilenetV2/expanded_conv_9/project/Conv2D_Fold"], "attr": {"T": {"type": "DT_FLOAT"}}}, {"name": "FeatureExtractor/MobilenetV2/expanded_conv_9/project/act_quant/FakeQuantWithMinMaxVars", "op": "FakeQuantWithMinMaxVars", "input": ["FeatureExtractor/MobilenetV2/expanded_conv_9/project/add_fold", "FeatureExtractor/MobilenetV2/expanded_conv_9/project/act_quant/min", "FeatureExtractor/MobilenetV2/expanded_conv_9/project/act_quant/max"], "attr": {"num_bits": {"i": "8"}, "narrow_range": {"b": false}}}, {"name": "FeatureExtractor/MobilenetV2/expanded_conv_9/add", "op": "Add", "input": ["FeatureExtractor/MobilenetV2/expanded_conv_8/post_activation_bypass_quant/FakeQuantWithMinMaxVars", "FeatureExtractor/MobilenetV2/expanded_conv_9/project/act_quant/FakeQuantWithMinMaxVars"], "attr": {"T": {"type": "DT_FLOAT"}}}, {"name": "FeatureExtractor/MobilenetV2/expanded_conv_9/post_activation_bypass_quant/FakeQuantWithMinMaxVars", "op": "FakeQuantWithMinMaxVars", "input": ["FeatureExtractor/MobilenetV2/expanded_conv_9/add", "FeatureExtractor/MobilenetV2/expanded_conv_9/post_activation_bypass_quant/min", "FeatureExtractor/MobilenetV2/expanded_conv_9/post_activation_bypass_quant/max"], "attr": {"num_bits": {"i": "8"}, "narrow_range": {"b": false}}}, {"name": "FeatureExtractor/MobilenetV2/expanded_conv_10/expand/Conv2D_Fold", "op": "Conv2D", "input": ["FeatureExtractor/MobilenetV2/expanded_conv_9/post_activation_bypass_quant/FakeQuantWithMinMaxVars", "FeatureExtractor/MobilenetV2/expanded_conv_10/expand/weights_quant/FakeQuantWithMinMaxVars"], "device": "/device:CPU:0", "attr": {"padding": {"s": "U0FNRQ=="}, "dilations": {"list": {"i": ["1", "1", "1", "1"]}}, "T": {"type": "DT_FLOAT"}, "strides": {"list": {"i": ["1", "1", "1", "1"]}}, "data_format": {"s": "TkhXQw=="}, "explicit_paddings": {"list": {}}, "use_cudnn_on_gpu": {"b": true}}}, {"name": "FeatureExtractor/MobilenetV2/expanded_conv_10/expand/add_fold", "op": "Add", "input": ["FeatureExtractor/MobilenetV2/expanded_conv_10/expand/BatchNorm_Fold/bias", "FeatureExtractor/MobilenetV2/expanded_conv_10/expand/Conv2D_Fold"], "attr": {"T": {"type": "DT_FLOAT"}}}, {"name": "FeatureExtractor/MobilenetV2/expanded_conv_10/expand/Relu6", "op": "Relu6", "input": ["FeatureExtractor/MobilenetV2/expanded_conv_10/expand/add_fold"], "attr": {"T": {"type": "DT_FLOAT"}}}, {"name": "FeatureExtractor/MobilenetV2/expanded_conv_10/expand/act_quant/FakeQuantWithMinMaxVars", "op": "FakeQuantWithMinMaxVars", "input": ["FeatureExtractor/MobilenetV2/expanded_conv_10/expand/Relu6", "FeatureExtractor/MobilenetV2/expanded_conv_15/expand/act_quant/min", "FeatureExtractor/MobilenetV2/expanded_conv_15/expand/act_quant/max"], "attr": {"num_bits": {"i": "8"}, "narrow_range": {"b": false}}}, {"name": "FeatureExtractor/MobilenetV2/expanded_conv_10/depthwise/depthwise_Fold", "op": "DepthwiseConv2dNative", "input": ["FeatureExtractor/MobilenetV2/expanded_conv_10/expand/act_quant/FakeQuantWithMinMaxVars", "FeatureExtractor/MobilenetV2/expanded_conv_10/depthwise/weights_quant/FakeQuantWithMinMaxVars"], "attr": {"T": {"type": "DT_FLOAT"}, "data_format": {"s": "TkhXQw=="}, "strides": {"list": {"i": ["1", "1", "1", "1"]}}, "padding": {"s": "U0FNRQ=="}, "dilations": {"list": {"i": ["1", "1", "1", "1"]}}}}, {"name": "FeatureExtractor/MobilenetV2/expanded_conv_10/depthwise/add_fold", "op": "Add", "input": ["FeatureExtractor/MobilenetV2/expanded_conv_10/depthwise/BatchNorm_Fold/bias", "FeatureExtractor/MobilenetV2/expanded_conv_10/depthwise/depthwise_Fold"], "attr": {"T": {"type": "DT_FLOAT"}}}, {"name": "FeatureExtractor/MobilenetV2/expanded_conv_10/depthwise/Relu6", "op": "Relu6", "input": ["FeatureExtractor/MobilenetV2/expanded_conv_10/depthwise/add_fold"], "attr": {"T": {"type": "DT_FLOAT"}}}, {"name": "FeatureExtractor/MobilenetV2/expanded_conv_10/depthwise/act_quant/FakeQuantWithMinMaxVars", "op": "FakeQuantWithMinMaxVars", "input": ["FeatureExtractor/MobilenetV2/expanded_conv_10/depthwise/Relu6", "FeatureExtractor/MobilenetV2/expanded_conv_15/expand/act_quant/min", "FeatureExtractor/MobilenetV2/expanded_conv_15/expand/act_quant/max"], "attr": {"num_bits": {"i": "8"}, "narrow_range": {"b": false}}}, {"name": "FeatureExtractor/MobilenetV2/expanded_conv_10/project/Conv2D_Fold", "op": "Conv2D", "input": ["FeatureExtractor/MobilenetV2/expanded_conv_10/depthwise/act_quant/FakeQuantWithMinMaxVars", "FeatureExtractor/MobilenetV2/expanded_conv_10/project/weights_quant/FakeQuantWithMinMaxVars"], "device": "/device:CPU:0", "attr": {"dilations": {"list": {"i": ["1", "1", "1", "1"]}}, "T": {"type": "DT_FLOAT"}, "strides": {"list": {"i": ["1", "1", "1", "1"]}}, "data_format": {"s": "TkhXQw=="}, "use_cudnn_on_gpu": {"b": true}, "explicit_paddings": {"list": {}}, "padding": {"s": "U0FNRQ=="}}}, {"name": "FeatureExtractor/MobilenetV2/expanded_conv_10/project/add_fold", "op": "Add", "input": ["FeatureExtractor/MobilenetV2/expanded_conv_10/project/BatchNorm_Fold/bias", "FeatureExtractor/MobilenetV2/expanded_conv_10/project/Conv2D_Fold"], "attr": {"T": {"type": "DT_FLOAT"}}}, {"name": "FeatureExtractor/MobilenetV2/expanded_conv_10/project/act_quant/FakeQuantWithMinMaxVars", "op": "FakeQuantWithMinMaxVars", "input": ["FeatureExtractor/MobilenetV2/expanded_conv_10/project/add_fold", "FeatureExtractor/MobilenetV2/expanded_conv_10/project/act_quant/min", "FeatureExtractor/MobilenetV2/expanded_conv_10/project/act_quant/max"], "attr": {"num_bits": {"i": "8"}, "narrow_range": {"b": false}}}, {"name": "FeatureExtractor/MobilenetV2/expanded_conv_11/expand/Conv2D_Fold", "op": "Conv2D", "input": ["FeatureExtractor/MobilenetV2/expanded_conv_10/project/act_quant/FakeQuantWithMinMaxVars", "FeatureExtractor/MobilenetV2/expanded_conv_11/expand/weights_quant/FakeQuantWithMinMaxVars"], "device": "/device:CPU:0", "attr": {"data_format": {"s": "TkhXQw=="}, "strides": {"list": {"i": ["1", "1", "1", "1"]}}, "explicit_paddings": {"list": {}}, "use_cudnn_on_gpu": {"b": true}, "padding": {"s": "U0FNRQ=="}, "dilations": {"list": {"i": ["1", "1", "1", "1"]}}, "T": {"type": "DT_FLOAT"}}}, {"name": "FeatureExtractor/MobilenetV2/expanded_conv_11/expand/add_fold", "op": "Add", "input": ["FeatureExtractor/MobilenetV2/expanded_conv_11/expand/BatchNorm_Fold/bias", "FeatureExtractor/MobilenetV2/expanded_conv_11/expand/Conv2D_Fold"], "attr": {"T": {"type": "DT_FLOAT"}}}, {"name": "FeatureExtractor/MobilenetV2/expanded_conv_11/expand/Relu6", "op": "Relu6", "input": ["FeatureExtractor/MobilenetV2/expanded_conv_11/expand/add_fold"], "attr": {"T": {"type": "DT_FLOAT"}}}, {"name": "FeatureExtractor/MobilenetV2/expanded_conv_11/expand/act_quant/FakeQuantWithMinMaxVars", "op": "FakeQuantWithMinMaxVars", "input": ["FeatureExtractor/MobilenetV2/expanded_conv_11/expand/Relu6", "FeatureExtractor/MobilenetV2/expanded_conv_15/expand/act_quant/min", "FeatureExtractor/MobilenetV2/expanded_conv_15/expand/act_quant/max"], "attr": {"num_bits": {"i": "8"}, "narrow_range": {"b": false}}}, {"name": "FeatureExtractor/MobilenetV2/expanded_conv_11/depthwise/depthwise_Fold", "op": "DepthwiseConv2dNative", "input": ["FeatureExtractor/MobilenetV2/expanded_conv_11/expand/act_quant/FakeQuantWithMinMaxVars", "FeatureExtractor/MobilenetV2/expanded_conv_11/depthwise/weights_quant/FakeQuantWithMinMaxVars"], "attr": {"padding": {"s": "U0FNRQ=="}, "dilations": {"list": {"i": ["1", "1", "1", "1"]}}, "T": {"type": "DT_FLOAT"}, "strides": {"list": {"i": ["1", "1", "1", "1"]}}, "data_format": {"s": "TkhXQw=="}}}, {"name": "FeatureExtractor/MobilenetV2/expanded_conv_11/depthwise/add_fold", "op": "Add", "input": ["FeatureExtractor/MobilenetV2/expanded_conv_11/depthwise/BatchNorm_Fold/bias", "FeatureExtractor/MobilenetV2/expanded_conv_11/depthwise/depthwise_Fold"], "attr": {"T": {"type": "DT_FLOAT"}}}, {"name": "FeatureExtractor/MobilenetV2/expanded_conv_11/depthwise/Relu6", "op": "Relu6", "input": ["FeatureExtractor/MobilenetV2/expanded_conv_11/depthwise/add_fold"], "attr": {"T": {"type": "DT_FLOAT"}}}, {"name": "FeatureExtractor/MobilenetV2/expanded_conv_11/depthwise/act_quant/FakeQuantWithMinMaxVars", "op": "FakeQuantWithMinMaxVars", "input": ["FeatureExtractor/MobilenetV2/expanded_conv_11/depthwise/Relu6", "FeatureExtractor/MobilenetV2/expanded_conv_15/expand/act_quant/min", "FeatureExtractor/MobilenetV2/expanded_conv_15/expand/act_quant/max"], "attr": {"num_bits": {"i": "8"}, "narrow_range": {"b": false}}}, {"name": "FeatureExtractor/MobilenetV2/expanded_conv_11/project/Conv2D_Fold", "op": "Conv2D", "input": ["FeatureExtractor/MobilenetV2/expanded_conv_11/depthwise/act_quant/FakeQuantWithMinMaxVars", "FeatureExtractor/MobilenetV2/expanded_conv_11/project/weights_quant/FakeQuantWithMinMaxVars"], "device": "/device:CPU:0", "attr": {"padding": {"s": "U0FNRQ=="}, "dilations": {"list": {"i": ["1", "1", "1", "1"]}}, "T": {"type": "DT_FLOAT"}, "strides": {"list": {"i": ["1", "1", "1", "1"]}}, "data_format": {"s": "TkhXQw=="}, "explicit_paddings": {"list": {}}, "use_cudnn_on_gpu": {"b": true}}}, {"name": "FeatureExtractor/MobilenetV2/expanded_conv_11/project/add_fold", "op": "Add", "input": ["FeatureExtractor/MobilenetV2/expanded_conv_11/project/BatchNorm_Fold/bias", "FeatureExtractor/MobilenetV2/expanded_conv_11/project/Conv2D_Fold"], "attr": {"T": {"type": "DT_FLOAT"}}}, {"name": "FeatureExtractor/MobilenetV2/expanded_conv_11/project/act_quant/FakeQuantWithMinMaxVars", "op": "FakeQuantWithMinMaxVars", "input": ["FeatureExtractor/MobilenetV2/expanded_conv_11/project/add_fold", "FeatureExtractor/MobilenetV2/expanded_conv_11/project/act_quant/min", "FeatureExtractor/MobilenetV2/expanded_conv_11/project/act_quant/max"], "attr": {"num_bits": {"i": "8"}, "narrow_range": {"b": false}}}, {"name": "FeatureExtractor/MobilenetV2/expanded_conv_11/add", "op": "Add", "input": ["FeatureExtractor/MobilenetV2/expanded_conv_10/project/act_quant/FakeQuantWithMinMaxVars", "FeatureExtractor/MobilenetV2/expanded_conv_11/project/act_quant/FakeQuantWithMinMaxVars"], "attr": {"T": {"type": "DT_FLOAT"}}}, {"name": "FeatureExtractor/MobilenetV2/expanded_conv_11/post_activation_bypass_quant/FakeQuantWithMinMaxVars", "op": "FakeQuantWithMinMaxVars", "input": ["FeatureExtractor/MobilenetV2/expanded_conv_11/add", "FeatureExtractor/MobilenetV2/expanded_conv_11/post_activation_bypass_quant/min", "FeatureExtractor/MobilenetV2/expanded_conv_11/post_activation_bypass_quant/max"], "attr": {"num_bits": {"i": "8"}, "narrow_range": {"b": false}}}, {"name": "FeatureExtractor/MobilenetV2/expanded_conv_12/expand/Conv2D_Fold", "op": "Conv2D", "input": ["FeatureExtractor/MobilenetV2/expanded_conv_11/post_activation_bypass_quant/FakeQuantWithMinMaxVars", "FeatureExtractor/MobilenetV2/expanded_conv_12/expand/weights_quant/FakeQuantWithMinMaxVars"], "device": "/device:CPU:0", "attr": {"dilations": {"list": {"i": ["1", "1", "1", "1"]}}, "T": {"type": "DT_FLOAT"}, "data_format": {"s": "TkhXQw=="}, "strides": {"list": {"i": ["1", "1", "1", "1"]}}, "use_cudnn_on_gpu": {"b": true}, "explicit_paddings": {"list": {}}, "padding": {"s": "U0FNRQ=="}}}, {"name": "FeatureExtractor/MobilenetV2/expanded_conv_12/expand/add_fold", "op": "Add", "input": ["FeatureExtractor/MobilenetV2/expanded_conv_12/expand/BatchNorm_Fold/bias", "FeatureExtractor/MobilenetV2/expanded_conv_12/expand/Conv2D_Fold"], "attr": {"T": {"type": "DT_FLOAT"}}}, {"name": "FeatureExtractor/MobilenetV2/expanded_conv_12/expand/Relu6", "op": "Relu6", "input": ["FeatureExtractor/MobilenetV2/expanded_conv_12/expand/add_fold"], "attr": {"T": {"type": "DT_FLOAT"}}}, {"name": "FeatureExtractor/MobilenetV2/expanded_conv_12/expand/act_quant/FakeQuantWithMinMaxVars", "op": "FakeQuantWithMinMaxVars", "input": ["FeatureExtractor/MobilenetV2/expanded_conv_12/expand/Relu6", "FeatureExtractor/MobilenetV2/expanded_conv_15/expand/act_quant/min", "FeatureExtractor/MobilenetV2/expanded_conv_15/expand/act_quant/max"], "attr": {"num_bits": {"i": "8"}, "narrow_range": {"b": false}}}, {"name": "FeatureExtractor/MobilenetV2/expanded_conv_12/depthwise/depthwise_Fold", "op": "DepthwiseConv2dNative", "input": ["FeatureExtractor/MobilenetV2/expanded_conv_12/expand/act_quant/FakeQuantWithMinMaxVars", "FeatureExtractor/MobilenetV2/expanded_conv_12/depthwise/weights_quant/FakeQuantWithMinMaxVars"], "attr": {"data_format": {"s": "TkhXQw=="}, "strides": {"list": {"i": ["1", "1", "1", "1"]}}, "padding": {"s": "U0FNRQ=="}, "dilations": {"list": {"i": ["1", "1", "1", "1"]}}, "T": {"type": "DT_FLOAT"}}}, {"name": "FeatureExtractor/MobilenetV2/expanded_conv_12/depthwise/add_fold", "op": "Add", "input": ["FeatureExtractor/MobilenetV2/expanded_conv_12/depthwise/BatchNorm_Fold/bias", "FeatureExtractor/MobilenetV2/expanded_conv_12/depthwise/depthwise_Fold"], "attr": {"T": {"type": "DT_FLOAT"}}}, {"name": "FeatureExtractor/MobilenetV2/expanded_conv_12/depthwise/Relu6", "op": "Relu6", "input": ["FeatureExtractor/MobilenetV2/expanded_conv_12/depthwise/add_fold"], "attr": {"T": {"type": "DT_FLOAT"}}}, {"name": "FeatureExtractor/MobilenetV2/expanded_conv_12/depthwise/act_quant/FakeQuantWithMinMaxVars", "op": "FakeQuantWithMinMaxVars", "input": ["FeatureExtractor/MobilenetV2/expanded_conv_12/depthwise/Relu6", "FeatureExtractor/MobilenetV2/expanded_conv_15/expand/act_quant/min", "FeatureExtractor/MobilenetV2/expanded_conv_15/expand/act_quant/max"], "attr": {"num_bits": {"i": "8"}, "narrow_range": {"b": false}}}, {"name": "FeatureExtractor/MobilenetV2/expanded_conv_12/project/Conv2D_Fold", "op": "Conv2D", "input": ["FeatureExtractor/MobilenetV2/expanded_conv_12/depthwise/act_quant/FakeQuantWithMinMaxVars", "FeatureExtractor/MobilenetV2/expanded_conv_12/project/weights_quant/FakeQuantWithMinMaxVars"], "device": "/device:CPU:0", "attr": {"explicit_paddings": {"list": {}}, "use_cudnn_on_gpu": {"b": true}, "padding": {"s": "U0FNRQ=="}, "dilations": {"list": {"i": ["1", "1", "1", "1"]}}, "T": {"type": "DT_FLOAT"}, "strides": {"list": {"i": ["1", "1", "1", "1"]}}, "data_format": {"s": "TkhXQw=="}}}, {"name": "FeatureExtractor/MobilenetV2/expanded_conv_12/project/add_fold", "op": "Add", "input": ["FeatureExtractor/MobilenetV2/expanded_conv_12/project/BatchNorm_Fold/bias", "FeatureExtractor/MobilenetV2/expanded_conv_12/project/Conv2D_Fold"], "attr": {"T": {"type": "DT_FLOAT"}}}, {"name": "FeatureExtractor/MobilenetV2/expanded_conv_12/project/act_quant/FakeQuantWithMinMaxVars", "op": "FakeQuantWithMinMaxVars", "input": ["FeatureExtractor/MobilenetV2/expanded_conv_12/project/add_fold", "FeatureExtractor/MobilenetV2/expanded_conv_12/project/act_quant/min", "FeatureExtractor/MobilenetV2/expanded_conv_12/project/act_quant/max"], "attr": {"num_bits": {"i": "8"}, "narrow_range": {"b": false}}}, {"name": "FeatureExtractor/MobilenetV2/expanded_conv_12/add", "op": "Add", "input": ["FeatureExtractor/MobilenetV2/expanded_conv_11/post_activation_bypass_quant/FakeQuantWithMinMaxVars", "FeatureExtractor/MobilenetV2/expanded_conv_12/project/act_quant/FakeQuantWithMinMaxVars"], "attr": {"T": {"type": "DT_FLOAT"}}}, {"name": "FeatureExtractor/MobilenetV2/expanded_conv_12/post_activation_bypass_quant/FakeQuantWithMinMaxVars", "op": "FakeQuantWithMinMaxVars", "input": ["FeatureExtractor/MobilenetV2/expanded_conv_12/add", "FeatureExtractor/MobilenetV2/expanded_conv_12/post_activation_bypass_quant/min", "FeatureExtractor/MobilenetV2/expanded_conv_12/post_activation_bypass_quant/max"], "attr": {"num_bits": {"i": "8"}, "narrow_range": {"b": false}}}, {"name": "FeatureExtractor/MobilenetV2/expanded_conv_13/expand/Conv2D_Fold", "op": "Conv2D", "input": ["FeatureExtractor/MobilenetV2/expanded_conv_12/post_activation_bypass_quant/FakeQuantWithMinMaxVars", "FeatureExtractor/MobilenetV2/expanded_conv_13/expand/weights_quant/FakeQuantWithMinMaxVars"], "device": "/device:CPU:0", "attr": {"dilations": {"list": {"i": ["1", "1", "1", "1"]}}, "T": {"type": "DT_FLOAT"}, "strides": {"list": {"i": ["1", "1", "1", "1"]}}, "data_format": {"s": "TkhXQw=="}, "use_cudnn_on_gpu": {"b": true}, "explicit_paddings": {"list": {}}, "padding": {"s": "U0FNRQ=="}}}, {"name": "FeatureExtractor/MobilenetV2/expanded_conv_13/expand/add_fold", "op": "Add", "input": ["FeatureExtractor/MobilenetV2/expanded_conv_13/expand/BatchNorm_Fold/bias", "FeatureExtractor/MobilenetV2/expanded_conv_13/expand/Conv2D_Fold"], "attr": {"T": {"type": "DT_FLOAT"}}}, {"name": "FeatureExtractor/MobilenetV2/expanded_conv_13/expand/Relu6", "op": "Relu6", "input": ["FeatureExtractor/MobilenetV2/expanded_conv_13/expand/add_fold"], "attr": {"T": {"type": "DT_FLOAT"}}}, {"name": "FeatureExtractor/MobilenetV2/expanded_conv_13/expand/act_quant/FakeQuantWithMinMaxVars", "op": "FakeQuantWithMinMaxVars", "input": ["FeatureExtractor/MobilenetV2/expanded_conv_13/expand/Relu6", "FeatureExtractor/MobilenetV2/expanded_conv_15/expand/act_quant/min", "FeatureExtractor/MobilenetV2/expanded_conv_15/expand/act_quant/max"], "attr": {"num_bits": {"i": "8"}, "narrow_range": {"b": false}}}, {"name": "BoxPredictor_0/BoxEncodingPredictor/BiasAdd", "op": "_FusedConv2D", "input": ["FeatureExtractor/MobilenetV2/expanded_conv_13/expand/act_quant/FakeQuantWithMinMaxVars", "BoxPredictor_0/BoxEncodingPredictor/weights_quant/FakeQuantWithMinMaxVars", "BoxPredictor_0/BoxEncodingPredictor/biases"], "device": "/device:CPU:0", "attr": {"fused_ops": {"list": {"s": ["Qmlhc0FkZA=="]}}, "dilations": {"list": {"i": ["1", "1", "1", "1"]}}, "T": {"type": "DT_FLOAT"}, "strides": {"list": {"i": ["1", "1", "1", "1"]}}, "data_format": {"s": "TkhXQw=="}, "use_cudnn_on_gpu": {"b": true}, "explicit_paddings": {"list": {}}, "num_args": {"i": "1"}, "epsilon": {"f": 0.0}, "padding": {"s": "U0FNRQ=="}}}, {"name": "BoxPredictor_0/ClassPredictor/BiasAdd", "op": "_FusedConv2D", "input": ["FeatureExtractor/MobilenetV2/expanded_conv_13/expand/act_quant/FakeQuantWithMinMaxVars", "BoxPredictor_0/ClassPredictor/weights_quant/FakeQuantWithMinMaxVars", "BoxPredictor_0/ClassPredictor/biases"], "device": "/device:CPU:0", "attr": {"dilations": {"list": {"i": ["1", "1", "1", "1"]}}, "T": {"type": "DT_FLOAT"}, "data_format": {"s": "TkhXQw=="}, "strides": {"list": {"i": ["1", "1", "1", "1"]}}, "explicit_paddings": {"list": {}}, "use_cudnn_on_gpu": {"b": true}, "num_args": {"i": "1"}, "epsilon": {"f": 0.0}, "padding": {"s": "U0FNRQ=="}, "fused_ops": {"list": {"s": ["Qmlhc0FkZA=="]}}}}, {"name": "BoxPredictor_0/Shape", "op": "Shape", "input": ["FeatureExtractor/MobilenetV2/expanded_conv_13/expand/act_quant/FakeQuantWithMinMaxVars"], "attr": {"T": {"type": "DT_FLOAT"}, "out_type": {"type": "DT_INT32"}}}, {"name": "FeatureExtractor/MobilenetV2/expanded_conv_13/depthwise/depthwise_Fold", "op": "DepthwiseConv2dNative", "input": ["FeatureExtractor/MobilenetV2/expanded_conv_13/expand/act_quant/FakeQuantWithMinMaxVars", "FeatureExtractor/MobilenetV2/expanded_conv_13/depthwise/weights_quant/FakeQuantWithMinMaxVars"], "attr": {"T": {"type": "DT_FLOAT"}, "strides": {"list": {"i": ["1", "2", "2", "1"]}}, "data_format": {"s": "TkhXQw=="}, "padding": {"s": "U0FNRQ=="}, "dilations": {"list": {"i": ["1", "1", "1", "1"]}}}}, {"name": "BoxPredictor_0/BoxEncodingPredictor/act_quant/FakeQuantWithMinMaxVars", "op": "FakeQuantWithMinMaxVars", "input": ["BoxPredictor_0/BoxEncodingPredictor/BiasAdd", "BoxPredictor_0/BoxEncodingPredictor/act_quant/min", "BoxPredictor_0/BoxEncodingPredictor/act_quant/max"], "attr": {"num_bits": {"i": "8"}, "narrow_range": {"b": false}}}, {"name": "BoxPredictor_0/ClassPredictor/act_quant/FakeQuantWithMinMaxVars", "op": "FakeQuantWithMinMaxVars", "input": ["BoxPredictor_0/ClassPredictor/BiasAdd", "BoxPredictor_0/ClassPredictor/act_quant/min", "BoxPredictor_0/ClassPredictor/act_quant/max"], "attr": {"num_bits": {"i": "8"}, "narrow_range": {"b": false}}}, {"name": "BoxPredictor_0/strided_slice", "op": "StridedSlice", "input": ["BoxPredictor_0/Shape", "Postprocessor/BatchMultiClassNonMaxSuppression/map/TensorArrayUnstack_5/strided_slice/stack", "Postprocessor/BatchMultiClassNonMaxSuppression/map/TensorArrayUnstack_5/strided_slice/stack_1", "Postprocessor/BatchMultiClassNonMaxSuppression/map/TensorArrayUnstack_5/strided_slice/stack_1"], "attr": {"begin_mask": {"i": "0"}, "ellipsis_mask": {"i": "0"}, "new_axis_mask": {"i": "0"}, "end_mask": {"i": "0"}, "Index": {"type": "DT_INT32"}, "T": {"type": "DT_INT32"}, "shrink_axis_mask": {"i": "1"}}}, {"name": "FeatureExtractor/MobilenetV2/expanded_conv_13/depthwise/add_fold", "op": "Add", "input": ["FeatureExtractor/MobilenetV2/expanded_conv_13/depthwise/BatchNorm_Fold/bias", "FeatureExtractor/MobilenetV2/expanded_conv_13/depthwise/depthwise_Fold"], "attr": {"T": {"type": "DT_FLOAT"}}}, {"name": "BoxPredictor_0/Reshape_1/shape", "op": "Pack", "input": ["BoxPredictor_0/strided_slice", "BoxPredictor_0/Reshape/shape/1", "BoxPredictor_0/Reshape_1/shape/2"], "attr": {"T": {"type": "DT_INT32"}, "axis": {"i": "0"}, "N": {"i": "3"}}}, {"name": "BoxPredictor_0/Reshape/shape", "op": "Pack", "input": ["BoxPredictor_0/strided_slice", "BoxPredictor_0/Reshape/shape/1", "Postprocessor/BatchMultiClassNonMaxSuppression/map/TensorArrayStack/range/delta", "BoxPredictor_0/Reshape/shape/3"], "attr": {"T": {"type": "DT_INT32"}, "axis": {"i": "0"}, "N": {"i": "4"}}}, {"name": "FeatureExtractor/MobilenetV2/expanded_conv_13/depthwise/Relu6", "op": "Relu6", "input": ["FeatureExtractor/MobilenetV2/expanded_conv_13/depthwise/add_fold"], "attr": {"T": {"type": "DT_FLOAT"}}}, {"name": "BoxPredictor_0/Reshape_1", "op": "Reshape", "input": ["BoxPredictor_0/ClassPredictor/act_quant/FakeQuantWithMinMaxVars", "BoxPredictor_0/Reshape_1/shape"], "attr": {"Tshape": {"type": "DT_INT32"}, "T": {"type": "DT_FLOAT"}}}, {"name": "BoxPredictor_0/Reshape", "op": "Reshape", "input": ["BoxPredictor_0/BoxEncodingPredictor/act_quant/FakeQuantWithMinMaxVars", "BoxPredictor_0/Reshape/shape"], "attr": {"T": {"type": "DT_FLOAT"}, "Tshape": {"type": "DT_INT32"}}}, {"name": "FeatureExtractor/MobilenetV2/expanded_conv_13/depthwise/act_quant/FakeQuantWithMinMaxVars", "op": "FakeQuantWithMinMaxVars", "input": ["FeatureExtractor/MobilenetV2/expanded_conv_13/depthwise/Relu6", "FeatureExtractor/MobilenetV2/expanded_conv_15/expand/act_quant/min", "FeatureExtractor/MobilenetV2/expanded_conv_15/expand/act_quant/max"], "attr": {"num_bits": {"i": "8"}, "narrow_range": {"b": false}}}, {"name": "FeatureExtractor/MobilenetV2/expanded_conv_13/project/Conv2D_Fold", "op": "Conv2D", "input": ["FeatureExtractor/MobilenetV2/expanded_conv_13/depthwise/act_quant/FakeQuantWithMinMaxVars", "FeatureExtractor/MobilenetV2/expanded_conv_13/project/weights_quant/FakeQuantWithMinMaxVars"], "device": "/device:CPU:0", "attr": {"padding": {"s": "U0FNRQ=="}, "dilations": {"list": {"i": ["1", "1", "1", "1"]}}, "T": {"type": "DT_FLOAT"}, "data_format": {"s": "TkhXQw=="}, "strides": {"list": {"i": ["1", "1", "1", "1"]}}, "use_cudnn_on_gpu": {"b": true}, "explicit_paddings": {"list": {}}}}, {"name": "FeatureExtractor/MobilenetV2/expanded_conv_13/project/add_fold", "op": "Add", "input": ["FeatureExtractor/MobilenetV2/expanded_conv_13/project/BatchNorm_Fold/bias", "FeatureExtractor/MobilenetV2/expanded_conv_13/project/Conv2D_Fold"], "attr": {"T": {"type": "DT_FLOAT"}}}, {"name": "FeatureExtractor/MobilenetV2/expanded_conv_13/project/act_quant/FakeQuantWithMinMaxVars", "op": "FakeQuantWithMinMaxVars", "input": ["FeatureExtractor/MobilenetV2/expanded_conv_13/project/add_fold", "FeatureExtractor/MobilenetV2/expanded_conv_13/project/act_quant/min", "FeatureExtractor/MobilenetV2/expanded_conv_13/project/act_quant/max"], "attr": {"num_bits": {"i": "8"}, "narrow_range": {"b": false}}}, {"name": "FeatureExtractor/MobilenetV2/expanded_conv_14/expand/Conv2D_Fold", "op": "Conv2D", "input": ["FeatureExtractor/MobilenetV2/expanded_conv_13/project/act_quant/FakeQuantWithMinMaxVars", "FeatureExtractor/MobilenetV2/expanded_conv_14/expand/weights_quant/FakeQuantWithMinMaxVars"], "device": "/device:CPU:0", "attr": {"dilations": {"list": {"i": ["1", "1", "1", "1"]}}, "T": {"type": "DT_FLOAT"}, "data_format": {"s": "TkhXQw=="}, "strides": {"list": {"i": ["1", "1", "1", "1"]}}, "explicit_paddings": {"list": {}}, "use_cudnn_on_gpu": {"b": true}, "padding": {"s": "U0FNRQ=="}}}, {"name": "FeatureExtractor/MobilenetV2/expanded_conv_14/expand/add_fold", "op": "Add", "input": ["FeatureExtractor/MobilenetV2/expanded_conv_14/expand/BatchNorm_Fold/bias", "FeatureExtractor/MobilenetV2/expanded_conv_14/expand/Conv2D_Fold"], "attr": {"T": {"type": "DT_FLOAT"}}}, {"name": "FeatureExtractor/MobilenetV2/expanded_conv_14/expand/Relu6", "op": "Relu6", "input": ["FeatureExtractor/MobilenetV2/expanded_conv_14/expand/add_fold"], "attr": {"T": {"type": "DT_FLOAT"}}}, {"name": "FeatureExtractor/MobilenetV2/expanded_conv_14/expand/act_quant/FakeQuantWithMinMaxVars", "op": "FakeQuantWithMinMaxVars", "input": ["FeatureExtractor/MobilenetV2/expanded_conv_14/expand/Relu6", "FeatureExtractor/MobilenetV2/expanded_conv_15/expand/act_quant/min", "FeatureExtractor/MobilenetV2/expanded_conv_15/expand/act_quant/max"], "attr": {"num_bits": {"i": "8"}, "narrow_range": {"b": false}}}, {"name": "FeatureExtractor/MobilenetV2/expanded_conv_14/depthwise/depthwise_Fold", "op": "DepthwiseConv2dNative", "input": ["FeatureExtractor/MobilenetV2/expanded_conv_14/expand/act_quant/FakeQuantWithMinMaxVars", "FeatureExtractor/MobilenetV2/expanded_conv_14/depthwise/weights_quant/FakeQuantWithMinMaxVars"], "attr": {"padding": {"s": "U0FNRQ=="}, "dilations": {"list": {"i": ["1", "1", "1", "1"]}}, "T": {"type": "DT_FLOAT"}, "strides": {"list": {"i": ["1", "1", "1", "1"]}}, "data_format": {"s": "TkhXQw=="}}}, {"name": "FeatureExtractor/MobilenetV2/expanded_conv_14/depthwise/add_fold", "op": "Add", "input": ["FeatureExtractor/MobilenetV2/expanded_conv_14/depthwise/BatchNorm_Fold/bias", "FeatureExtractor/MobilenetV2/expanded_conv_14/depthwise/depthwise_Fold"], "attr": {"T": {"type": "DT_FLOAT"}}}, {"name": "FeatureExtractor/MobilenetV2/expanded_conv_14/depthwise/Relu6", "op": "Relu6", "input": ["FeatureExtractor/MobilenetV2/expanded_conv_14/depthwise/add_fold"], "attr": {"T": {"type": "DT_FLOAT"}}}, {"name": "FeatureExtractor/MobilenetV2/expanded_conv_14/depthwise/act_quant/FakeQuantWithMinMaxVars", "op": "FakeQuantWithMinMaxVars", "input": ["FeatureExtractor/MobilenetV2/expanded_conv_14/depthwise/Relu6", "FeatureExtractor/MobilenetV2/expanded_conv_15/expand/act_quant/min", "FeatureExtractor/MobilenetV2/expanded_conv_15/expand/act_quant/max"], "attr": {"num_bits": {"i": "8"}, "narrow_range": {"b": false}}}, {"name": "FeatureExtractor/MobilenetV2/expanded_conv_14/project/Conv2D_Fold", "op": "Conv2D", "input": ["FeatureExtractor/MobilenetV2/expanded_conv_14/depthwise/act_quant/FakeQuantWithMinMaxVars", "FeatureExtractor/MobilenetV2/expanded_conv_14/project/weights_quant/FakeQuantWithMinMaxVars"], "device": "/device:CPU:0", "attr": {"dilations": {"list": {"i": ["1", "1", "1", "1"]}}, "T": {"type": "DT_FLOAT"}, "data_format": {"s": "TkhXQw=="}, "strides": {"list": {"i": ["1", "1", "1", "1"]}}, "explicit_paddings": {"list": {}}, "use_cudnn_on_gpu": {"b": true}, "padding": {"s": "U0FNRQ=="}}}, {"name": "FeatureExtractor/MobilenetV2/expanded_conv_14/project/add_fold", "op": "Add", "input": ["FeatureExtractor/MobilenetV2/expanded_conv_14/project/BatchNorm_Fold/bias", "FeatureExtractor/MobilenetV2/expanded_conv_14/project/Conv2D_Fold"], "attr": {"T": {"type": "DT_FLOAT"}}}, {"name": "FeatureExtractor/MobilenetV2/expanded_conv_14/project/act_quant/FakeQuantWithMinMaxVars", "op": "FakeQuantWithMinMaxVars", "input": ["FeatureExtractor/MobilenetV2/expanded_conv_14/project/add_fold", "FeatureExtractor/MobilenetV2/expanded_conv_14/project/act_quant/min", "FeatureExtractor/MobilenetV2/expanded_conv_14/project/act_quant/max"], "attr": {"num_bits": {"i": "8"}, "narrow_range": {"b": false}}}, {"name": "FeatureExtractor/MobilenetV2/expanded_conv_14/add", "op": "Add", "input": ["FeatureExtractor/MobilenetV2/expanded_conv_13/project/act_quant/FakeQuantWithMinMaxVars", "FeatureExtractor/MobilenetV2/expanded_conv_14/project/act_quant/FakeQuantWithMinMaxVars"], "attr": {"T": {"type": "DT_FLOAT"}}}, {"name": "FeatureExtractor/MobilenetV2/expanded_conv_14/post_activation_bypass_quant/FakeQuantWithMinMaxVars", "op": "FakeQuantWithMinMaxVars", "input": ["FeatureExtractor/MobilenetV2/expanded_conv_14/add", "FeatureExtractor/MobilenetV2/expanded_conv_14/post_activation_bypass_quant/min", "FeatureExtractor/MobilenetV2/expanded_conv_14/post_activation_bypass_quant/max"], "attr": {"num_bits": {"i": "8"}, "narrow_range": {"b": false}}}, {"name": "FeatureExtractor/MobilenetV2/expanded_conv_15/expand/Conv2D_Fold", "op": "Conv2D", "input": ["FeatureExtractor/MobilenetV2/expanded_conv_14/post_activation_bypass_quant/FakeQuantWithMinMaxVars", "FeatureExtractor/MobilenetV2/expanded_conv_15/expand/weights_quant/FakeQuantWithMinMaxVars"], "device": "/device:CPU:0", "attr": {"dilations": {"list": {"i": ["1", "1", "1", "1"]}}, "T": {"type": "DT_FLOAT"}, "strides": {"list": {"i": ["1", "1", "1", "1"]}}, "data_format": {"s": "TkhXQw=="}, "use_cudnn_on_gpu": {"b": true}, "explicit_paddings": {"list": {}}, "padding": {"s": "U0FNRQ=="}}}, {"name": "FeatureExtractor/MobilenetV2/expanded_conv_15/expand/add_fold", "op": "Add", "input": ["Featu…
tion": {"min": -107.38768005371094, "scale": 1.0, "dtype": "uint16"}}, {"name": "BoxPredictor_0/ClassPredictor/act_quant/max", "shape": [], "dtype": "float32", "quantization": {"min": 62.86343765258789, "scale": 1.0, "dtype": "uint16"}}, {"name": "BoxPredictor_1/ClassPredictor/weights_quant/FakeQuantWithMinMaxVars", "shape": [1, 1, 1280, 36], "dtype": "float32", "quantization": {"min": -0.3740783309494502, "scale": 1.2897918523926842e-05, "dtype": "uint16"}}, {"name": "BoxPredictor_1/ClassPredictor/biases", "shape": [36], "dtype": "float32", "quantization": {"min": -0.16686963122615173, "scale": 4.683665409962718e-06, "dtype": "uint16"}}, {"name": "BoxPredictor_1/ClassPredictor/act_quant/min", "shape": [], "dtype": "float32", "quantization": {"min": -52.475337982177734, "scale": 1.0, "dtype": "uint16"}}, {"name": "BoxPredictor_1/ClassPredictor/act_quant/max", "shape": [], "dtype": "float32", "quantization": {"min": 36.15068817138672, "scale": 1.0, "dtype": "uint16"}}, {"name": "BoxPredictor_2/ClassPredictor/weights_quant/FakeQuantWithMinMaxVars", "shape": [1, 1, 512, 36], "dtype": "float32", "quantization": {"min": -0.1895905874073255, "scale": 5.1544393292187894e-06, "dtype": "uint16"}}, {"name": "BoxPredictor_2/ClassPredictor/biases", "shape": [36], "dtype": "float32", "quantization": {"min": -0.05421727043925065, "scale": 1.5298758553923827e-06, "dtype": "uint16"}}, {"name": "BoxPredictor_2/ClassPredictor/act_quant/min", "shape": [], "dtype": "float32", "quantization": {"min": -16.38434600830078, "scale": 1.0, "dtype": "uint16"}}, {"name": "BoxPredictor_2/ClassPredictor/act_quant/max", "shape": [], "dtype": "float32", "quantization": {"min": 13.448676109313965, "scale": 1.0, "dtype": "uint16"}}, {"name": "BoxPredictor_3/ClassPredictor/weights_quant/FakeQuantWithMinMaxVars", "shape": [1, 1, 256, 36], "dtype": "float32", "quantization": {"min": -0.12140280663389594, "scale": 3.690054912884375e-06, "dtype": "uint16"}}, {"name": "BoxPredictor_3/ClassPredictor/biases", "shape": [36], "dtype": "float32", "quantization": {"min": -0.03512524657529534, "scale": 9.48280191552478e-07, "dtype": "uint16"}}, {"name": "BoxPredictor_3/ClassPredictor/act_quant/min", "shape": [], "dtype": "float32", "quantization": {"min": -10.710275650024414, "scale": 1.0, "dtype": "uint16"}}, {"name": "BoxPredictor_3/ClassPredictor/act_quant/max", "shape": [], "dtype": "float32", "quantization": {"min": 10.168434143066406, "scale": 1.0, "dtype": "uint16"}}, {"name": "BoxPredictor_4/ClassPredictor/weights_quant/FakeQuantWithMinMaxVars", "shape": [1, 1, 256, 36], "dtype": "float32", "quantization": {"min": -0.08828068228110647, "scale": 2.5819104551095715e-06, "dtype": "uint16"}}, {"name": "BoxPredictor_4/ClassPredictor/biases", "shape": [36], "dtype": "float32", "quantization": {"min": -0.019352422036390298, "scale": 5.60809726335641e-07, "dtype": "uint16"}}, {"name": "BoxPredictor_4/ClassPredictor/act_quant/min", "shape": [], "dtype": "float32", "quantization": {"min": -10.240948677062988, "scale": 1.0, "dtype": "uint16"}}, {"name": "BoxPredictor_4/ClassPredictor/act_quant/max", "shape": [], "dtype": "float32", "quantization": {"min": 9.836077690124512, "scale": 1.0, "dtype": "uint16"}}, {"name": "BoxPredictor_5/ClassPredictor/weights_quant/FakeQuantWithMinMaxVars", "shape": [1, 1, 128, 36], "dtype": "float32", "quantization": {"min": -0.11786989989959286, "scale": 3.4199883911096143e-06, "dtype": "uint16"}}, {"name": "BoxPredictor_5/ClassPredictor/biases", "shape": [36], "dtype": "float32", "quantization": {"min": -0.02355692031952958, "scale": 6.839789878206085e-07, "dtype": "uint16"}}, {"name": "BoxPredictor_5/ClassPredictor/act_quant/min", "shape": [], "dtype": "float32", "quantization": {"min": -9.738089561462402, "scale": 1.0, "dtype": "uint16"}}, {"name": "BoxPredictor_5/ClassPredictor/act_quant/max", "shape": [], "dtype": "float32", "quantization": {"min": 9.377273559570312, "scale": 1.0, "dtype": "uint16"}}, {"name": "FeatureExtractor/MobilenetV2/layer_19_2_Conv2d_5_3x3_s2_128/BatchNorm_Fold/bias", "shape": [128], "dtype": "float32", "quantization": {"min": -14.804910272921468, "scale": 0.0004703405747981532, "dtype": "uint16"}}, {"name": "FeatureExtractor/MobilenetV2/layer_19_1_Conv2d_5_1x1_64/BatchNorm_Fold/bias", "shape": [64], "dtype": "float32", "quantization": {"min": -3.862541958817703, "scale": 9.481888154992397e-05, "dtype": "uint16"}}, {"name": "FeatureExtractor/MobilenetV2/layer_19_2_Conv2d_4_3x3_s2_256/BatchNorm_Fold/bias", "shape": [256], "dtype": "float32", "quantization": {"min": -2.479980767367133, "scale": 0.00010906287731945701, "dtype": "uint16"}}, {"name": "FeatureExtractor/MobilenetV2/layer_19_1_Conv2d_4_1x1_128/BatchNorm_Fold/bias", "shape": [128], "dtype": "float32", "quantization": {"min": -3.8905393323573074, "scale": 9.776944016176984e-05, "dtype": "uint16"}}, {"name": "FeatureExtractor/MobilenetV2/layer_19_2_Conv2d_3_3x3_s2_256/BatchNorm_Fold/bias", "shape": [256], "dtype": "float32", "quantization": {"min": -2.45560811560769, "scale": 9.771231210885718e-05, "dtype": "uint16"}}, {"name": "FeatureExtractor/MobilenetV2/layer_19_1_Conv2d_3_1x1_128/BatchNorm_Fold/bias", "shape": [128], "dtype": "float32", "quantization": {"min": -0.5744885166240538, "scale": 5.218353316596001e-05, "dtype": "uint16"}}, {"name": "FeatureExtractor/MobilenetV2/layer_19_2_Conv2d_2_3x3_s2_512/BatchNorm_Fold/bias", "shape": [512], "dtype": "float32", "quantization": {"min": -4.419838377746736, "scale": 0.00016542549508745922, "dtype": "uint16"}}, {"name": "FeatureExtractor/MobilenetV2/layer_19_1_Conv2d_2_1x1_256/BatchNorm_Fold/bias", "shape": [256], "dtype": "float32", "quantization": {"min": -1.8530600503333747, "scale": 6.537520022343887e-05, "dtype": "uint16"}}, {"name": "FeatureExtractor/MobilenetV2/Conv_1/BatchNorm_Fold/bias", "shape": [1280], "dtype": "float32", "quantization": {"min": -5.981643931172829, "scale": 0.00011412301925387928, "dtype": "uint16"}}, {"name": "FeatureExtractor/MobilenetV2/expanded_conv_16/project/BatchNorm_Fold/bias", "shape": [320], "dtype": "float32", "quantization": {"min": -5.38586351592999, "scale": 0.0001476954839008937, "dtype": "uint16"}}, {"name": "FeatureExtractor/MobilenetV2/expanded_conv_16/depthwise/BatchNorm_Fold/bias", "shape": [960], "dtype": "float32", "quantization": {"min": -5.113711786382921, "scale": 0.00030299886155021156, "dtype": "uint16"}}, {"name": "FeatureExtractor/MobilenetV2/expanded_conv_16/expand/BatchNorm_Fold/bias", "shape": [960], "dtype": "float32", "quantization": {"min": -2.1713067397014805, "scale": 7.36610489432941e-05, "dtype": "uint16"}}, {"name": "FeatureExtractor/MobilenetV2/expanded_conv_15/project/BatchNorm_Fold/bias", "shape": [160], "dtype": "float32", "quantization": {"min": -8.427104135504429, "scale": 0.00023154565559841816, "dtype": "uint16"}}, {"name": "FeatureExtractor/MobilenetV2/expanded_conv_15/depthwise/BatchNorm_Fold/bias", "shape": [960], "dtype": "float32", "quantization": {"min": -4.289991160487569, "scale": 0.00011752756453037007, "dtype": "uint16"}}, {"name": "FeatureExtractor/MobilenetV2/expanded_conv_15/expand/BatchNorm_Fold/bias", "shape": [960], "dtype": "float32", "quantization": {"min": -1.468462710749087, "scale": 4.821270965753126e-05, "dtype": "uint16"}}, {"name": "FeatureExtractor/MobilenetV2/expanded_conv_14/project/BatchNorm_Fold/bias", "shape": [160], "dtype": "float32", "quantization": {"min": -4.982392856408431, "scale": 0.00013809675590810254, "dtype": "uint16"}}, {"name": "FeatureExtractor/MobilenetV2/expanded_conv_14/depthwise/BatchNorm_Fold/bias", "shape": [960], "dtype": "float32", "quantization": {"min": -4.228768344437348, "scale": 0.00012087375573638266, "dtype": "uint16"}}, {"name": "FeatureExtractor/MobilenetV2/expanded_conv_14/expand/BatchNorm_Fold/bias", "shape": [960], "dtype": "float32", "quantization": {"min": -1.5969616160236688, "scale": 5.5124667449902276e-05, "dtype": "uint16"}}, {"name": "FeatureExtractor/MobilenetV2/expanded_conv_13/project/BatchNorm_Fold/bias", "shape": [160], "dtype": "float32", "quantization": {"min": -6.787677150719625, "scale": 0.0001740385413379048, "dtype": "uint16"}}, {"name": "FeatureExtractor/MobilenetV2/expanded_conv_13/depthwise/BatchNorm_Fold/bias", "shape": [576], "dtype": "float32", "quantization": {"min": -3.2899866186636597, "scale": 0.00010587586466704189, "dtype": "uint16"}}, {"name": "FeatureExtractor/MobilenetV2/expanded_conv_13/expand/BatchNorm_Fold/bias", "shape": [576], "dtype": "float32", "quantization": {"min": -5.259990457466358, "scale": 9.028941513408446e-05, "dtype": "uint16"}}, {"name": "FeatureExtractor/MobilenetV2/expanded_conv_12/project/BatchNorm_Fold/bias", "shape": [96], "dtype": "float32", "quantization": {"min": -26.56232590882358, "scale": 0.0006738628522203963, "dtype": "uint16"}}, {"name": "FeatureExtractor/MobilenetV2/expanded_conv_12/depthwise/BatchNorm_Fold/bias", "shape": [576], "dtype": "float32", "quantization": {"min": -6.994677984293406, "scale": 0.0001678668998822455, "dtype": "uint16"}}, {"name": "FeatureExtractor/MobilenetV2/expanded_conv_12/expand/BatchNorm_Fold/bias", "shape": [576], "dtype": "float32", "quantization": {"min": -2.485815243638425, "scale": 7.584717286990984e-05, "dtype": "uint16"}}, {"name": "FeatureExtractor/MobilenetV2/expanded_conv_11/project/BatchNorm_Fold/bias", "shape": [96], "dtype": "float32", "quantization": {"min": -7.054007160624495, "scale": 0.00027726925673615406, "dtype": "uint16"}}, {"name": "FeatureExtractor/MobilenetV2/expanded_conv_11/depthwise/BatchNorm_Fold/bias", "shape": [576], "dtype": "float32", "quantization": {"min": -5.375385564916274, "scale": 0.0001297932045132506, "dtype": "uint16"}}, {"name": "FeatureExtractor/MobilenetV2/expanded_conv_11/expand/BatchNorm_Fold/bias", "shape": [576], "dtype": "float32", "quantization": {"min": -2.4927955381219244, "scale": 7.631629739535649e-05, "dtype": "uint16"}}, {"name": "FeatureExtractor/MobilenetV2/expanded_conv_10/project/BatchNorm_Fold/bias", "shape": [96], "dtype": "float32", "quantization": {"min": -9.567756525675456, "scale": 0.0002643903096516927, "dtype": "uint16"}}, {"name": "FeatureExtractor/MobilenetV2/expanded_conv_10/depthwise/BatchNorm_Fold/bias", "shape": [384], "dtype": "float32", "quantization": {"min": -4.709872523443353, "scale": 0.00017822198976211274, "dtype": "uint16"}}, {"name": "FeatureExtractor/MobilenetV2/expanded_conv_10/expand/BatchNorm_Fold/bias", "shape": [384], "dtype": "float32", "quantization": {"min": -2.6957127436571446, "scale": 0.00010496915009762644, "dtype": "uint16"}}, {"name": "FeatureExtractor/MobilenetV2/expanded_conv_9/project/BatchNorm_Fold/bias", "shape": [64], "dtype": "float32", "quantization": {"min": -15.403940307720216, "scale": 0.00042083819106959036, "dtype": "uint16"}}, {"name": "FeatureExtractor/MobilenetV2/expanded_conv_9/depthwise/BatchNorm_Fold/bias", "shape": [384], "dtype": "float32", "quantization": {"min": -4.575668241048719, "scale": 0.00012430840938489824, "dtype": "uint16"}}, {"name": "FeatureExtractor/MobilenetV2/expanded_conv_9/expand/BatchNorm_Fold/bias", "shape": [384], "dtype": "float32", "quantization": {"min": -1.9989474853189078, "scale": 7.204452841198399e-05, "dtype": "uint16"}}, {"name": "FeatureExtractor/MobilenetV2/expanded_conv_8/project/BatchNorm_Fold/bias", "shape": [64], "dtype": "float32", "quantization": {"min": -7.6227255592686705, "scale": 0.0002998240072084908, "dtype": "uint16"}}, {"name": "FeatureExtractor/MobilenetV2/expanded_conv_8/depthwise/BatchNorm_Fold/bias", "shape": [384], "dtype": "float32", "quantization": {"min": -6.807350105430584, "scale": 0.00019925506689587238, "dtype": "uint16"}}, {"name": "FeatureExtractor/MobilenetV2/expanded_conv_8/expand/BatchNorm_Fold/bias", "shape": [384], "dtype": "float32", "quantization": {"min": -1.2450241645923004, "scale": 5.959334504079553e-05, "dtype": "uint16"}}, {"name": "FeatureExtractor/MobilenetV2/expanded_conv_7/project/BatchNorm_Fold/bias", "shape": [64], "dtype": "float32", "quantization": {"min": -8.252211141582666, "scale": 0.00023330443418570767, "dtype": "uint16"}}, {"name": "FeatureExtractor/MobilenetV2/expanded_conv_7/depthwise/BatchNorm_Fold/bias", "shape": [384], "dtype": "float32", "quantization": {"min": -13.582868916591645, "scale": 0.00031227139610988445, "dtype": "uint16"}}, {"name": "FeatureExtractor/MobilenetV2/expanded_conv_7/expand/BatchNorm_Fold/bias", "shape": [384], "dtype": "float32", "quantization": {"min": -1.7859673125270739, "scale": 7.054419214468831e-05, "dtype": "uint16"}}, {"name": "FeatureExtractor/MobilenetV2/expanded_conv_6/project/BatchNorm_Fold/bias", "shape": [64], "dtype": "float32", "quantization": {"min": -12.219144875446466, "scale": 0.0003190377252074795, "dtype": "uint16"}}, {"name": "FeatureExtractor/MobilenetV2/expanded_conv_6/depthwise/BatchNorm_Fold/bias", "shape": [192], "dtype": "float32", "quantization": {"min": -3.1566519358669805, "scale": 0.00014770726385601892, "dtype": "uint16"}}, {"name": "FeatureExtractor/MobilenetV2/expanded_conv_6/expand/BatchNorm_Fold/bias", "shape": [192], "dtype": "float32", "quantization": {"min": -1.8870675450323773, "scale": 6.841911261492975e-05, "dtype": "uint16"}}, {"name": "FeatureExtractor/MobilenetV2/expanded_conv_5/project/BatchNorm_Fold/bias", "shape": [32], "dtype": "float32", "quantization": {"min": -7.53489896140983, "scale": 0.0002651732873978473, "dtype": "uint16"}}, {"name": "FeatureExtractor/MobilenetV2/expanded_conv_5/depthwise/BatchNorm_Fold/bias", "shape": [192], "dtype": "float32", "quantization": {"min": -5.644548087550435, "scale": 0.0001584745939567195, "dtype": "uint16"}}, {"name": "FeatureExtractor/MobilenetV2/expanded_conv_5/expand/BatchNorm_Fold/bias", "shape": [192], "dtype": "float32", "quantization": {"min": -1.4306685207364325, "scale": 6.0511293860188316e-05, "dtype": "uint16"}}, {"name": "FeatureExtractor/MobilenetV2/expanded_conv_4/project/BatchNorm_Fold/bias", "shape": [32], "dtype": "float32", "quantization": {"min": -7.800425667652524, "scale": 0.00024614785950307743, "dtype": "uint16"}}, {"name": "FeatureExtractor/MobilenetV2/expanded_conv_4/depthwise/BatchNorm_Fold/bias", "shape": [192], "dtype": "float32", "quantization": {"min": -4.5764426875098065, "scale": 0.00017635617292908697, "dtype": "uint16"}}, {"name": "FeatureExtractor/MobilenetV2/expanded_conv_4/expand/BatchNorm_Fold/bias", "shape": [192], "dtype": "float32", "quantization": {"min": -0.9739255663922407, "scale": 8.135707680162398e-05, "dtype": "uint16"}}, {"name": "FeatureExtractor/MobilenetV2/expanded_conv_3/project/BatchNorm_Fold/bias", "shape": [32], "dtype": "float32", "quantization": {"min": -17.81407897214627, "scale": 0.0004458424009446959, "dtype": "uint16"}}, {"name": "FeatureExtractor/MobilenetV2/expanded_conv_3/depthwise/BatchNorm_Fold/bias", "shape": [144], "dtype": "float32", "quantization": {"min": -1.9997676311663761, "scale": 0.00016967314026526185, "dtype": "uint16"}}, {"name": "FeatureExtractor/MobilenetV2/expanded_conv_3/expand/BatchNorm_Fold/bias", "shape": [144], "dtype": "float32", "quantization": {"min": -2.233268506705029, "scale": 9.80191584754665e-05, "dtype": "uint16"}}, {"name": "FeatureExtractor/MobilenetV2/expanded_conv_2/project/BatchNorm_Fold/bias", "shape": [24], "dtype": "float32", "quantization": {"min": -12.810994963246841, "scale": 0.0003039958939596327, "dtype": "uint16"}}, {"name": "FeatureExtractor/MobilenetV2/expanded_conv_2/depthwise/BatchNorm_Fold/bias", "shape": [144], "dtype": "float32", "quantization": {"min": -6.358967557073122, "scale": 0.00015932869527381227, "dtype": "uint16"}}, {"name": "FeatureExtractor/MobilenetV2/expanded_conv_2/expand/BatchNorm_Fold/bias", "shape": [144], "dtype": "float32", "quantization": {"min": -2.2166511000853486, "scale": 9.626313024212223e-05, "dtype": "uint16"}}, {"name": "FeatureExtractor/MobilenetV2/expanded_conv_1/project/BatchNorm_Fold/bias", "shape": [24], "dtype": "float32", "quantization": {"min": -10.336052783079257, "scale": 0.0002453487652648893, "dtype": "uint16"}}, {"name": "FeatureExtractor/MobilenetV2/expanded_conv_1/depthwise/BatchNorm_Fold/bias", "shape": [96], "dtype": "float32", "quantization": {"min": -3.3103271804376497, "scale": 0.00017948962644025645, "dtype": "uint16"}}, {"name": "FeatureExtractor/MobilenetV2/expanded_conv_1/expand/BatchNorm_Fold/bias", "shape": [96], "dtype": "float32", "quantization": {"min": -2.4416984679361153, "scale": 9.530067007283538e-05, "dtype": "uint16"}}, {"name": "FeatureExtractor/MobilenetV2/expanded_conv/project/BatchNorm_Fold/bias", "shape": [16], "dtype": "float32", "quantization": {"min": -22.345032689176108, "scale": 0.0006767940601276989, "dtype": "uint16"}}, {"name": "FeatureExtractor/MobilenetV2/expanded_conv/depthwise/BatchNorm_Fold/bias", "shape": [32], "dtype": "float32", "quantization": {"min": -2.1031169467671944, "scale": 0.0001654824885331021, "dtype": "uint16"}}, {"name": "FeatureExtractor/MobilenetV2/Conv/BatchNorm_Fold/bias", "shape": [32], "dtype": "float32", "quantization": {"min": -4.562321962116602, "scale": 0.00012737156152088563, "dtype": "uint16"}}, {"name": "Postprocessor/BatchMultiClassNonMaxSuppression/map/TensorArrayStack/range/start", "shape": [], "dtype": "int32"}, {"name": "Preprocessor/mul/x", "shape": [], "dtype": "float32", "quantization": {"min": 0.007843137718737125, "scale": 1.0, "dtype": "uint16"}}, {"name": "add/y", "shape": [], "dtype": "float32", "quantization": {"min": 1.0, "scale": 1.0, "dtype": "uint16"}}, {"name": "FeatureExtractor/MobilenetV2/Conv/weights_quant/FakeQuantWithMinMaxVars", "shape": [3, 3, 3, 32], "dtype": "float32", "quantization": {"min": -3.4453507377197843, "scale": 9.965149354196172e-05, "dtype": "uint16"}}, {"name": "FeatureExtractor/MobilenetV2/expanded_conv/depthwise/weights_quant/FakeQuantWithMinMaxVars", "shape": [3, 3, 32, 1], "dtype": "float32", "quantization": {"min": -22.03806133903282, "scale": 0.0006621217804059854, "dtype": "uint16"}}, {"name": "FeatureExtractor/MobilenetV2/expanded_conv/project/weights_quant/FakeQuantWithMinMaxVars", "shape": [1, 1, 32, 16], "dtype": "float32", "quantization": {"min": -3.7120997137341973, "scale": 9.844068295988218e-05, "dtype": "uint16"}}, {"name": "FeatureExtractor/MobilenetV2/expanded_conv/project/act_quant/min", "shape": [], "dtype": "float32", "quantization": {"min": -41.45416259765625, "scale": 1.0, "dtype": "uint16"}}, {"name": "FeatureExtractor/MobilenetV2/expanded_conv/project/act_quant/max", "shape": [], "dtype": "float32", "quantization": {"min": 38.99077224731445, "scale": 1.0, "dtype": "uint16"}}, {"name": "FeatureExtractor/MobilenetV2/expanded_conv_1/expand/weights_quant/FakeQuantWithMinMaxVars", "shape": [1, 1, 16, 96], "dtype": "float32", "quantization": {"min": -0.8392519376730313, "scale": 2.4420995683903606e-05, "dtype": "uint16"}}, {"name": "FeatureExtractor/MobilenetV2/expanded_conv_1/depthwise/weights_quant/FakeQuantWithMinMaxVars", "shape": [3, 3, 96, 1], "dtype": "float32", "quantization": {"min": -2.4707791215723875, "scale": 6.217047761995842e-05, "dtype": "uint16"}}, {"name": "FeatureExtractor/MobilenetV2/expanded_conv_1/project/weights_quant/FakeQuantWithMinMaxVars", "shape": [1, 1, 96, 24], "dtype": "float32", "quantization": {"min": -1.8728094131366115, "scale": 5.624727934696695e-05, "dtype": "uint16"}}, {"name": "FeatureExtractor/MobilenetV2/expanded_conv_1/project/act_quant/min", "shape": [], "dtype": "float32", "quantization": {"min": -34.919132232666016, "scale": 1.0, "dtype": "uint16"}}, {"name": "FeatureExtractor/MobilenetV2/expanded_conv_1/project/act_quant/max", "shape": [], "dtype": "float32", "quantization": {"min": 33.77573013305664, "scale": 1.0, "dtype": "uint16"}}, {"name": "FeatureExtractor/MobilenetV2/expanded_conv_2/expand/weights_quant/FakeQuantWithMinMaxVars", "shape": [1, 1, 24, 144], "dtype": "float32", "quantization": {"min": -0.2704343032853285, "scale": 7.958397436371164e-06, "dtype": "uint16"}}, {"name": "FeatureExtractor/MobilenetV2/expanded_conv_2/depthwise/weights_quant/FakeQuantWithMinMaxVars", "shape": [3, 3, 144, 1], "dtype": "float32", "quantization": {"min": -9.610804409121107, "scale": 0.00038250435441857466, "dtype": "uint16"}}, {"name": "FeatureExtractor/MobilenetV2/expanded_conv_2/project/weights_quant/FakeQuantWithMinMaxVars", "shape": [1, 1, 144, 24], "dtype": "float32", "quantization": {"min": -2.2313975568602413, "scale": 6.428687861884878e-05, "dtype": "uint16"}}, {"name": "FeatureExtractor/MobilenetV2/expanded_conv_2/project/act_quant/min", "shape": [], "dtype": "float32", "quantization": {"min": -52.53191375732422, "scale": 1.0, "dtype": "uint16"}}, {"name": "FeatureExtractor/MobilenetV2/expanded_conv_2/project/act_quant/max", "shape": [], "dtype": "float32", "quantization": {"min": 42.272857666015625, "scale": 1.0, "dtype": "uint16"}}, {"name": "FeatureExtractor/MobilenetV2/expanded_conv_2/post_activation_bypass_quant/min", "shape": [], "dtype": "float32", "quantization": {"min": -51.66349411010742, "scale": 1.0, "dtype": "uint16"}}, {"name": "FeatureExtractor/MobilenetV2/expanded_conv_2/post_activation_bypass_quant/max", "shape": [], "dtype": "float32", "quantization": {"min": 49.730743408203125, "scale": 1.0, "dtype": "uint16"}}, {"name": "FeatureExtractor/MobilenetV2/expanded_conv_3/expand/weights_quant/FakeQuantWithMinMaxVars", "shape": [1, 1, 24, 144], "dtype": "float32", "quantization": {"min": -0.21866683199611767, "scale": 6.277757004941366e-06, "dtype": "uint16"}}, {"name": "FeatureExtractor/MobilenetV2/expanded_conv_3/depthwise/weights_quant/FakeQuantWithMinMaxVars", "shape": [3, 3, 144, 1], "dtype": "float32", "quantization": {"min": -1.4120353139055268, "scale": 4.2418748915691146e-05, "dtype": "uint16"}}, {"name": "FeatureExtractor/MobilenetV2/expanded_conv_3/project/weights_quant/FakeQuantWithMinMaxVars", "shape": [1, 1, 144, 32], "dtype": "float32", "quantization": {"min": -1.4595822551043636, "scale": 4.384183152422094e-05, "dtype": "uint16"}}, {"name": "FeatureExtractor/MobilenetV2/expanded_conv_3/project/act_quant/min", "shape": [], "dtype": "float32", "quantization": {"min": -25.9926700592041, "scale": 1.0, "dtype": "uint16"}}, {"name": "FeatureExtractor/MobilenetV2/expanded_conv_3/project/act_quant/max", "shape": [], "dtype": "float32", "quantization": {"min": 26.7540340423584, "scale": 1.0, "dtype": "uint16"}}, {"name": "FeatureExtractor/MobilenetV2/expanded_conv_4/expand/weights_quant/FakeQuantWithMinMaxVars", "shape": [1, 1, 32, 192], "dtype": "float32", "quantization": {"min": -0.1778177964234412, "scale": 5.584905192482214e-06, "dtype": "uint16"}}, {"name": "FeatureExtractor/MobilenetV2/expanded_conv_4/depthwise/weights_quant/FakeQuantWithMinMaxVars", "shape": [3, 3, 192, 1], "dtype": "float32", "quantization": {"min": -4.471247681693189, "scale": 0.00012290400444456265, "dtype": "uint16"}}, {"name": "FeatureExtractor/MobilenetV2/expanded_conv_4/project/weights_quant/FakeQuantWithMinMaxVars", "shape": [1, 1, 192, 32], "dtype": "float32", "quantization": {"min": -1.11154274099741, "scale": 3.796771215321116e-05, "dtype": "uint16"}}, {"name": "FeatureExtractor/MobilenetV2/expanded_conv_4/project/act_quant/min", "shape": [], "dtype": "float32", "quantization": {"min": -21.544292449951172, "scale": 1.0, "dtype": "uint16"}}, {"name": "FeatureExtractor/MobilenetV2/expanded_conv_4/project/act_quant/max", "shape": [], "dtype": "float32", "quantization": {"min": 31.16139030456543, "scale": 1.0, "dtype": "uint16"}}, {"name": "FeatureExtractor/MobilenetV2/expanded_conv_4/post_activation_bypass_quant/min", "shape": [], "dtype": "float32", "quantization": {"min": -31.443105697631836, "scale": 1.0, "dtype": "uint16"}}, {"name": "FeatureExtractor/MobilenetV2/expanded_conv_4/post_activation_bypass_quant/max", "shape": [], "dtype": "float32", "quantization": {"min": 38.43458938598633, "scale": 1.0, "dtype": "uint16"}}, {"name": "FeatureExtractor/MobilenetV2/expanded_conv_5/expand/weights_quant/FakeQuantWithMinMaxVars", "shape": [1, 1, 32, 192], "dtype": "float32", "quantization": {"min": -0.18253453239870168, "scale": 5.244190318002175e-06, "dtype": "uint16"}}, {"name": "FeatureExtractor/MobilenetV2/expanded_conv_5/depthwise/weights_quant/FakeQuantWithMinMaxVars", "shape": [3, 3, 192, 1], "dtype": "float32", "quantization": {"min": -2.6103176005619506, "scale": 8.53993849558971e-05, "dtype": "uint16"}}, {"name": "FeatureExtractor/MobilenetV2/expanded_conv_5/project/weights_quant/FakeQuantWithMinMaxVars", "shape": [1, 1, 192, 32], "dtype": "float32", "quantization": {"min": -1.7315324371954466, "scale": 5.812657145911063e-05, "dtype": "uint16"}}, {"name": "FeatureExtractor/MobilenetV2/expanded_conv_5/project/act_quant/min", "shape": [], "dtype": "float32", "quantization": {"min": -32.047855377197266, "scale": 1.0, "dtype": "uint16"}}, {"name": "FeatureExtractor/MobilenetV2/expanded_conv_5/project/act_quant/max", "shape": [], "dtype": "float32", "quantization": {"min": 27.779146194458008, "scale": 1.0, "dtype": "uint16"}}, {"name": "FeatureExtractor/MobilenetV2/expanded_conv_5/post_activation_bypass_quant/min", "shape": [], "dtype": "float32", "quantization": {"min": -47.58526611328125, "scale": 1.0, "dtype": "uint16"}}, {"name": "FeatureExtractor/MobilenetV2/expanded_conv_5/post_activation_bypass_quant/max", "shape": [], "dtype": "float32", "quantization": {"min": 47.942203521728516, "scale": 1.0, "dtype": "uint16"}}, {"name": "FeatureExtractor/MobilenetV2/expanded_conv_6/expand/weights_quant/FakeQuantWithMinMaxVars", "shape": [1, 1, 32, 192], "dtype": "float32", "quantization": {"min": -0.15357473633005025, "scale": 4.763632132822055e-06, "dtype": "uint16"}}, {"name": "FeatureExtractor/MobilenetV2/expanded_conv_6/depthwise/weights_quant/FakeQuantWithMinMaxVars", "shape": [3, 3, 192, 1], "dtype": "float32", "quantization": {"min": -2.5283838704511488, "scale": 0.00012050251980035977, "dtype": "uint16"}}, {"name": "FeatureExtractor/MobilenetV2/expanded_conv_6/project/weights_quant/FakeQuantWithMinMaxVars", "shape": [1, 1, 192, 64], "dtype": "float32", "quantization": {"min": -1.081163288137774, "scale": 3.0326310289691003e-05, "dtype": "uint16"}}, {"name": "FeatureExtractor/MobilenetV2/expanded_conv_6/project/act_quant/min", "shape": [], "dtype": "float32", "quantization": {"min": -23.931425094604492, "scale": 1.0, "dtype": "uint16"}}, {"name": "FeatureExtractor/MobilenetV2/expanded_conv_6/project/act_quant/max", "shape": [], "dtype": "float32", "quantization": {"min": 18.964988708496094, "scale": 1.0, "dtype": "uint16"}}, {"name": "FeatureExtractor/MobilenetV2/expanded_conv_7/expand/weights_quant/FakeQuantWithMinMaxVars", "shape": [1, 1, 64, 384], "dtype": "float32", "quantization": {"min": -0.3054987961307147, "scale": 8.04600585031775e-06, "dtype": "uint16"}}, {"name": "FeatureExtractor/MobilenetV2/expanded_conv_7/depthwise/weights_quant/FakeQuantWithMinMaxVars", "shape": [3, 3, 384, 1], "dtype": "float32", "quantization": {"min": -6.257400418863131, "scale": 0.0001542903742692359, "dtype": "uint16"}}, {"name": "FeatureExtractor/MobilenetV2/expanded_conv_7/project/weights_quant/FakeQuantWithMinMaxVars", "shape": [1, 1, 384, 64], "dtype": "float32", "quantization": {"min": -0.9077288790026363, "scale": 2.713932128449895e-05, "dtype": "uint16"}}, {"name": "FeatureExtractor/MobilenetV2/expanded_conv_7/project/act_quant/min", "shape": [], "dtype": "float32", "quantization": {"min": -15.304508209228516, "scale": 1.0, "dtype": "uint16"}}, {"name": "FeatureExtractor/MobilenetV2/expanded_conv_7/project/act_quant/max", "shape": [], "dtype": "float32", "quantization": {"min": 15.874368667602539, "scale": 1.0, "dtype": "uint16"}}, {"name": "FeatureExtractor/MobilenetV2/expanded_conv_7/post_activation_bypass_quant/min", "shape": [], "dtype": "float32", "quantization": {"min": -27.65559959411621, "scale": 1.0, "dtype": "uint16"}}, {"name": "FeatureExtractor/MobilenetV2/expanded_conv_7/post_activation_bypass_quant/max", "shape": [], "dtype": "float32", "quantization": {"min": 23.239404678344727, "scale": 1.0, "dtype": "uint16"}}, {"name": "FeatureExtractor/MobilenetV2/expanded_conv_8/expand/weights_quant/FakeQuantWithMinMaxVars", "shape": [1, 1, 64, 384], "dtype": "float32", "quantization": {"min": -0.33356648778136866, "scale": 1.0875985907445995e-05, "dtype": "uint16"}}, {"name": "FeatureExtractor/MobilenetV2/expanded_conv_8/depthwise/weights_quant/FakeQuantWithMinMaxVars", "shape": [3, 3, 384, 1], "dtype": "float32", "quantization": {"min": -2.771664466386421, "scale": 9.553510500435754e-05, "dtype": "uint16"}}, {"name": "FeatureExtractor/MobilenetV2/expanded_conv_8/project/weights_quant/FakeQuantWithMinMaxVars", "shape": [1, 1, 384, 64], "dtype": "float32", "quantization": {"min": -1.2339673641099622, "scale": 4.3359477286972914e-05, "dtype": "uint16"}}, {"name": "FeatureExtractor/MobilenetV2/expanded_conv_8/project/act_quant/min", "shape": [], "dtype": "float32", "quantization": {"min": -17.094104766845703, "scale": 1.0, "dtype": "uint16"}}, {"name": "FeatureExtractor/MobilenetV2/expanded_conv_8/project/act_quant/max", "shape": [], "dtype": "float32", "quantization": {"min": 16.603248596191406, "scale": 1.0, "dtype": "uint16"}}, {"name": "FeatureExtractor/MobilenetV2/expanded_conv_8/post_activation_bypass_quant/min", "shape": [], "dtype": "float32", "quantization": {"min": -31.811525344848633, "scale": 1.0, "dtype": "uint16"}}, {"name": "FeatureExtractor/MobilenetV2/expanded_conv_8/post_activation_bypass_quant/max", "shape": [], "dtype": "float32", "quantization": {"min": 27.184038162231445, "scale": 1.0, "dtype": "uint16"}}, {"name": "FeatureExtractor/MobilenetV2/expanded_conv_9/expand/weights_quant/FakeQuantWithMinMaxVars", "shape": [1, 1, 64, 384], "dtype": "float32", "quantization": {"min": -0.23239130006917344, "scale": 7.90554157263483e-06, "dtype": "uint16"}}, {"name": "FeatureExtractor/MobilenetV2/expanded_conv_9/depthwise/weights_quant/FakeQuantWithMinMaxVars", "shape": [3, 3, 384, 1], "dtype": "float32", "quantization": {"min": -4.081202014487404, "scale": 0.000159777708745543, "dtype": "uint16"}}, {"name": "FeatureExtractor/MobilenetV2/expanded_conv_9/project/weights_quant/FakeQuantWithMinMaxVars", "shape": [1, 1, 384, 64], "dtype": "float32", "quantization": {"min": -2.34348269702914, "scale": 6.902340648648504e-05, "dtype": "uint16"}}, {"name": "FeatureExtractor/MobilenetV2/expanded_conv_9/project/act_quant/min", "shape": [], "dtype": "float32", "quantization": {"min": -23.965429306030273, "scale": 1.0, "dtype": "uint16"}}, {"name": "FeatureExtractor/MobilenetV2/expanded_conv_9/project/act_quant/max", "shape": [], "dtype": "float32", "quantization": {"min": 20.363170623779297, "scale": 1.0, "dtype": "uint16"}}, {"name": "FeatureExtractor/MobilenetV2/expanded_conv_9/post_activation_bypass_quant/min", "shape": [], "dtype": "float32", "quantization": {"min": -34.534725189208984, "scale": 1.0, "dtype": "uint16"}}, {"name": "FeatureExtractor/MobilenetV2/expanded_conv_9/post_activation_bypass_quant/max", "shape": [], "dtype": "float32", "quantization": {"min": 31.11211395263672, "scale": 1.0, "dtype": "uint16"}}, {"name": "FeatureExtractor/MobilenetV2/expanded_conv_10/expand/weights_quant/FakeQuantWithMinMaxVars", "shape": [1, 1, 64, 384], "dtype": "float32", "quantization": {"min": -0.11775561543926909, "scale": 3.5936161938253506e-06, "dtype": "uint16"}}, {"name": "FeatureExtractor/MobilenetV2/expanded_conv_10/depthwise/weights_quant/FakeQuantWithMinMaxVars", "shape": [3, 3, 384, 1], "dtype": "float32", "quantization": {"min": -2.619962885484021, "scale": 0.00014189573686546907, "dtype": "uint16"}}, {"name": "FeatureExtractor/MobilenetV2/expanded_conv_10/project/weights_quant/FakeQuantWithMinMaxVars", "shape": [1, 1, 384, 96], "dtype": "float32", "quantization": {"min": -1.63875614355292, "scale": 3.920656834185655e-05, "dtype": "uint16"}}, {"name": "FeatureExtractor/MobilenetV2/expanded_conv_10/project/act_quant/min", "shape": [], "dtype": "float32", "quantization": {"min": -20.26081657409668, "scale": 1.0, "dtype": "uint16"}}, {"name": "FeatureExtractor/MobilenetV2/expanded_conv_10/project/act_quant/max", "shape": [], "dtype": "float32", "quantization": {"min": 19.568466186523438, "scale": 1.0, "dtype": "uint16"}}, {"name": "FeatureExtractor/MobilenetV2/expanded_conv_11/expand/weights_quant/FakeQuantWithMinMaxVars", "shape": [1, 1, 96, 576], "dtype": "float32", "quantization": {"min": -0.3024121629807081, "scale": 9.156790497811061e-06, "dtype": "uint16"}}, {"name": "FeatureExtractor/MobilenetV2/expanded_conv_11/depthwise/weights_quant/FakeQuantWithMinMaxVars", "shape": [3, 3, 576, 1], "dtype": "float32", "quantization": {"min": -4.416590533522472, "scale": 0.00015148655577165054, "dtype": "uint16"}}, {"name": "FeatureExtractor/MobilenetV2/expanded_conv_11/project/weights_quant/FakeQuantWithMinMaxVars", "shape": [1, 1, 576, 96], "dtype": "float32", "quantization": {"min": -1.2448652922502323, "scale": 5.81305296404498e-05, "dtype": "uint16"}}, {"name": "FeatureExtractor/MobilenetV2/expanded_conv_11/project/act_quant/min", "shape": [], "dtype": "float32", "quantization": {"min": -29.757808685302734, "scale": 1.0, "dtype": "uint16"}}, {"name": "FeatureExtractor/MobilenetV2/expanded_conv_11/project/act_quant/max", "shape": [], "dtype": "float32", "quantization": {"min": 40.61721420288086, "scale": 1.0, "dtype": "uint16"}}, {"name": "FeatureExtractor/MobilenetV2/expanded_conv_11/post_activation_bypass_quant/min", "shape": [], "dtype": "float32", "quantization": {"min": -33.07014465332031, "scale": 1.0, "dtype": "uint16"}}, {"name": "FeatureExtractor/MobilenetV2/expanded_conv_11/post_activation_bypass_quant/max", "shape": [], "dtype": "float32", "quantization": {"min": 42.45033264160156, "scale": 1.0, "dtype": "uint16"}}, {"name": "FeatureExtractor/MobilenetV2/expanded_conv_12/expand/weights_quant/FakeQuantWithMinMaxVars", "shape": [1, 1, 96, 576], "dtype": "float32", "quantization": {"min": -0.12479439638802323, "scale": 5.374204228414936e-06, "dtype": "uint16"}}, {"name": "FeatureExtractor/MobilenetV2/expanded_conv_12/depthwise/weights_quant/FakeQuantWithMinMaxVars", "shape": [3, 3, 576, 1], "dtype": "float32", "quantization": {"min": -3.4922723352931824, "scale": 0.00015208258221021566, "dtype": "uint16"}}, {"name": "FeatureExtractor/MobilenetV2/expanded_conv_12/project/weights_quant/FakeQuantWithMinMaxVars", "shape": [1, 1, 576, 96], "dtype": "float32", "quantization": {"min": -3.0684308356857506, "scale": 9.009427552075138e-05, "dtype": "uint16"}}, {"name": "FeatureExtractor/MobilenetV2/expanded_conv_12/project/act_quant/min", "shape": [], "dtype": "float32", "quantization": {"min": -38.08555221557617, "scale": 1.0, "dtype": "uint16"}}, {"name": "FeatureExtractor/MobilenetV2/expanded_conv_12/project/act_quant/max", "shape": [], "dtype": "float32", "quantization": {"min": 37.80030059814453, "scale": 1.0, "dtype": "uint16"}}, {"name": "FeatureExtractor/MobilenetV2/expanded_conv_12/post_activation_bypass_quant/min", "shape": [], "dtype": "float32", "quantization": {"min": -50.76219940185547, "scale": 1.0, "dtype": "uint16"}}, {"name": "FeatureExtractor/MobilenetV2/expanded_conv_12/post_activation_bypass_quant/max", "shape": [], "dtype": "float32", "quantization": {"min": 57.81714630126953, "scale": 1.0, "dtype": "uint16"}}, {"name": "FeatureExtractor/MobilenetV2/expanded_conv_13/expand/weights_quant/FakeQuantWithMinMaxVars", "shape": [1, 1, 96, 576], "dtype": "float32", "quantization": {"min": -0.1476220496924853, "scale": 4.633315014986513e-06, "dtype": "uint16"}}, {"name": "FeatureExtractor/MobilenetV2/expanded_conv_13/depthwise/weights_quant/FakeQuantWithMinMaxVars", "shape": [3, 3, 576, 1], "dtype": "float32", "quantization": {"min": -9.927961752203151, "scale": 0.00027097444599058767, "dtype": "uint16"}}, {"name": "FeatureExtractor/MobilenetV2/expanded_conv_13/project/weights_quant/FakeQuantWithMinMaxVars", "shape": [1, 1, 576, 160], "dtype": "float32", "quantization": {"min": -0.6997981250836355, "scale": 1.7703410789132927e-05, "dtype": "uint16"}}, {"name": "FeatureExtractor/MobilenetV2/expanded_conv_13/project/act_quant/min", "shape": [], "dtype": "float32", "quantization": {"min": -23.55607032775879, "scale": 1.0, "dtype": "uint16"}}, {"name": "FeatureExtractor/MobilenetV2/expanded_conv_13/project/act_quant/max", "shape": [], "dtype": "float32", "quantization": {"min": 15.013330459594727, "scale": 1.0, "dtype": "uint16"}}, {"name": "FeatureExtractor/MobilenetV2/expanded_conv_14/expand/weights_quant/FakeQuantWithMinMaxVars", "shape": [1, 1, 160, 960], "dtype": "float32", "quantization": {"min": -0.6077522768020776, "scale": 1.4630531458884871e-05, "dtype": "uint16"}}, {"name": "FeatureExtractor/MobilenetV2/expanded_conv_14/depthwise/weights_quant/FakeQuantWithMinMaxVars", "shape": [3, 3, 960, 1], "dtype": "float32", "quantization": {"min": -5.647279403225512, "scale": 0.0001362596067855112, "dtype": "uint16"}}, {"name": "FeatureExtractor/MobilenetV2/expanded_conv_14/project/weights_quant/FakeQuantWithMinMaxVars", "shape": [1, 1, 960, 160], "dtype": "float32", "quantization": {"min": -0.7395162614594064, "scale": 2.1074843586759944e-05, "dtype": "uint16"}}, {"name": "FeatureExtractor/MobilenetV2/expanded_conv_14/project/act_quant/min", "shape": [], "dtype": "float32", "quantization": {"min": -15.549091339111328, "scale": 1.0, "dtype": "uint16"}}, {"name": "FeatureExtractor/MobilenetV2/expanded_conv_14/project/act_quant/max", "shape": [], "dtype": "float32", "quantization": {"min": 11.837705612182617, "scale": 1.0, "dtype": "uint16"}}, {"name": "FeatureExtractor/MobilenetV2/expanded_conv_14/post_activation_bypass_quant/min", "shape": [], "dtype": "float32", "quantization": {"min": -24.90690803527832, "scale": 1.0, "dtype": "uint16"}}, {"name": "FeatureExtractor/MobilenetV2/expanded_conv_14/post_activation_bypass_quant/max", "shape": [], "dtype": "float32", "quantization": {"min": 20.02519989013672, "scale": 1.0, "dtype": "uint16"}}, {"name": "FeatureExtractor/MobilenetV2/expanded_conv_15/expand/weights_quant/FakeQuantWithMinMaxVars", "shape": [1, 1, 160, 960], "dtype": "float32", "quantization": {"min": -0.2692350179514059, "scale": 7.561506991838621e-06, "dtype": "uint16"}}, {"name": "FeatureExtractor/MobilenetV2/expanded_conv_15/depthwise/weights_quant/FakeQuantWithMinMaxVars", "shape": [3, 3, 960, 1], "dtype": "float32", "quantization": {"min": -4.07075484860741, "scale": 0.00011110745260678559, "dtype": "uint16"}}, {"name": "FeatureExtractor/MobilenetV2/expanded_conv_15/project/weights_quant/FakeQuantWithMinMaxVars", "shape": [1, 1, 960, 160], "dtype": "float32", "quantization": {"min": -1.0098609140902095, "scale": 3.7635035742936295e-05, "dtype": "uint16"}}, {"name": "FeatureExtractor/MobilenetV2/expanded_conv_15/project/act_quant/min", "shape": [], "dtype": "float32", "quantization": {"min": -32.495849609375, "scale": 1.0, "dtype": "uint16"}}, {"name": "FeatureExtractor/MobilenetV2/expanded_conv_15/project/act_quant/max", "shape": [], "dtype": "float32", "quantization": {"min": 27.349483489990234, "scale": 1.0, "dtype": "uint16"}}, {"name": "FeatureExtractor/MobilenetV2/expanded_conv_15/post_activation_bypass_quant/min", "shape": [], "dtype": "float32", "quantization": {"min": -45.736148834228516, "scale": 1.0, "dtype": "uint16"}}, {"name": "FeatureExtractor/MobilenetV2/expanded_conv_15/post_activation_bypass_quant/max", "shape": [], "dtype": "float32", "quantization": {"min": 36.42560958862305, "scale": 1.0, "dtype": "uint16"}}, {"name": "FeatureExtractor/MobilenetV2/expanded_conv_16/expand/weights_quant/FakeQuantWithMinMaxVars", "shape": [1, 1, 160, 960], "dtype": "float32", "quantization": {"min": -0.13909833404140542, "scale": 4.115335326668799e-06, "dtype": "uint16"}}, {"name": "FeatureExtractor/MobilenetV2/expanded_conv_16/depthwise/weights_quant/FakeQuantWithMinMaxVars", "shape": [3, 3, 960, 1], "dtype": "float32", "quantization": {"min": -5.264406699956742, "scale": 0.00014893082211035253, "dtype": "uint16"}}, {"name": "FeatureExtractor/MobilenetV2/expanded_conv_16/project/weights_quant/FakeQuantWithMinMaxVars", "shape": [1, 1, 960, 320], "dtype": "float32", "quantization": {"min": -0.5122198226150463, "scale": 1.6824431683857653e-05, "dtype": "uint16"}}, {"name": "FeatureExtractor/MobilenetV2/expanded_conv_16/project/act_quant/min", "shape": [], "dtype": "float32", "quantization": {"min": -19.0511474609375, "scale": 1.0, "dtype": "uint16"}}, {"name": "FeatureExtractor/MobilenetV2/expanded_conv_16/project/act_quant/max", "shape": [], "dtype": "float32", "quantization": {"min": 14.162320137023926, "scale": 1.0, "dtype": "uint16"}}, {"name": "FeatureExtractor/MobilenetV2/Conv_1/weights_quant/FakeQuantWithMinMaxVars", "shape": [1, 1, 320, 1280], "dtype": "float32", "quantization": {"min": -0.4714356754099358, "scale": 1.7569249633284978e-05, "dtype": "uint16"}}, {"name": "FeatureExtractor/MobilenetV2/layer_19_1_Conv2d_2_1x1_256/weights_quant/FakeQuantWithMinMaxVars", "shape": [1, 1, 1280, 256], "dtype": "float32", "quantization": {"min": -0.5694246123382226, "scale": 1.710805829642539e-05, "dtype": "uint16"}}, {"name": "FeatureExtractor/MobilenetV2/layer_19_2_Conv2d_2_3x3_s2_512/weights_quant/FakeQuantWithMinMaxVars", "shape": [3, 3, 256, 512], "dtype": "float32", "quantization": {"min": -1.0823531377285507, "scale": 3.38309360712828e-05, "dtype": "uint16"}}, {"name": "FeatureExtractor/MobilenetV2/layer_19_1_Conv2d_3_1x1_128/weights_quant/FakeQuantWithMinMaxVars", "shape": [1, 1, 512, 128], "dtype": "float32", "quantization": {"min": -0.4383183855586424, "scale": 1.4397056513668661e-05, "dtype": "uint16"}}, {"name": "FeatureExtractor/MobilenetV2/layer_19_1_Conv2d_3_1x1_128/act_quant/max", "shape": [], "dtype": "float32", "quantization": {"min": 5.554363250732422, "scale": 1.0, "dtype": "uint16"}}, {"name": "FeatureExtractor/MobilenetV2/layer_19_2_Conv2d_3_3x3_s2_256/weights_quant/FakeQuantWithMinMaxVars", "shape": [3, 3, 128, 256], "dtype": "float32", "quantization": {"min": -1.5680871619925016, "scale": 5.150557273747747e-05, "dtype": "uint16"}}, {"name": "FeatureExtractor/MobilenetV2/layer_19_1_Conv2d_4_1x1_128/weights_quant/FakeQuantWithMinMaxVars", "shape": [1, 1, 256, 128], "dtype": "float32", "quantization": {"min": -0.3321046785403509, "scale": 1.2143211032957363e-05, "dtype": "uint16"}}, {"name": "FeatureExtractor/MobilenetV2/layer_19_1_Conv2d_4_1x1_128/act_quant/max", "shape": [], "dtype": "float32", "quantization": {"min": 3.4033219814300537, "scale": 1.0, "dtype": "uint16"}}, {"name": "FeatureExtractor/MobilenetV2/layer_19_2_Conv2d_4_3x3_s2_256/weights_quant/FakeQuantWithMinMaxVars", "shape": [3, 3, 128, 256], "dtype": "float32", "quantization": {"min": -2.468344961777426, "scale": 6.784895441939049e-05, "dtype": "uint16"}}, {"name": "FeatureExtractor/MobilenetV2/layer_19_1_Conv2d_5_1x1_64/weights_quant/FakeQuantWithMinMaxVars", "shape": [1, 1, 256, 64], "dtype": "float32", "quantization": {"min": -0.763749126076671, "scale": 3.482509352408331e-05, "dtype": "uint16"}}, {"name": "FeatureExtractor/MobilenetV2/layer_19_1_Conv2d_5_1x1_64/act_quant/max", "shape": [], "dtype": "float32", "quantization": {"min": 5.5352888107299805, "scale": 1.0, "dtype": "uint16"}}, {"name": "FeatureExtractor/MobilenetV2/layer_19_2_Conv2d_5_3x3_s2_128/weights_quant/FakeQuantWithMinMaxVars", "shape": [3, 3, 64, 128], "dtype": "float32", "quantization": {"min": -2.260642760735114, "scale": 8.265906470931712e-05, "dtype": "uint16"}}, {"name": "FeatureExtractor/MobilenetV2/expanded_conv_15/expand/act_quant/min", "shape": [], "dtype": "float32", "quantization": {"min": 0.0, "scale": 1.0, "dtype": "uint16"}}, {"name": "FeatureExtractor/MobilenetV2/expanded_conv_15/expand/act_quant/max", "shape": [], "dtype": "float32", "quantization": {"min": 5.999761581420898, "scale": 1.0, "dtype": "uint16"}}, {"name": "Postprocessor/BatchMultiClassNonMaxSuppression/map/TensorArrayUnstack_5/strided_slice/stack", "shape": [1], "dtype": "int32"}, {"name": "Postprocessor/BatchMultiClassNonMaxSuppression/map/TensorArrayUnstack_5/strided_slice/stack_1", "shape": [1], "dtype": "int32"}, {"name": "BoxPredictor_0/Reshape/shape/1", "shape": [], "dtype": "int32"}, {"name": "BoxPredictor_0/Reshape_1/shape/2", "shape": [], "dtype": "int32"}, {"name": "Postprocessor/BatchMultiClassNonMaxSuppression/map/TensorArrayStack/range/delta", "shape": [], "dtype": "int32"}, {"name": "Preprocessor/map/while/ResizeImage/stack_1", "shape": [3], "dtype": "int32"}, {"name": "Preprocessor/map/while/ResizeImage/resize/ExpandDims/dim", "shape": [], "dtype": "int32"}, {"name": "Preprocessor/map/while/ResizeImage/stack", "shape": [2], "dtype": "int32"}, {"name": "Preprocessor/map/while/add/y", "shape": [], "dtype": "int32"}, {"name": "ConstantFolding/Postprocessor/BatchMultiClassNonMaxSuppression/ones/packed_const_axis", "shape": [], "dtype": "int32"}, {"name": "Postprocessor/BatchMultiClassNonMaxSuppression/map/while/PadOrClipBoxList/sub_3/x", "shape": [], "dtype": "int32"}, {"name": "Postprocessor/BatchMultiClassNonMaxSuppression/map/while/MultiClassNonMaxSuppression/add_5/y", "shape": [], "dtype": "float32", "quantization": {"min": 2.0, "scale": 1.0, "dtype": "uint16"}}, {"name": "Postprocessor/BatchMultiClassNonMaxSuppression/map/while/MultiClassNonMaxSuppression/add_7/y", "shape": [], "dtype": "float32", "quantization": {"min": 3.0, "scale": 1.0, "dtype": "uint16"}}, {"name": "Postprocessor/BatchMultiClassNonMaxSuppression/map/while/MultiClassNonMaxSuppression/add_9/y", "shape": [], "dtype": "float32", "quantization": {"min": 4.0, "scale": 1.0, "dtype": "uint16"}}, {"name": "Postprocessor/BatchMultiClassNonMaxSuppression/map/while/Reshape_4/shape", "shape": [2], "dtype": "int32"}, {"name": "Postprocessor/BatchMultiClassNonMaxSuppression/map/while/PadOrClipBoxList/sub_17/x", "shape": [], "dtype": "int32"}, {"name": "Postprocessor/BatchMultiClassNonMaxSuppression/map/while/PadOrClipBoxList/zeros_1/shape_as_tensor", "shape": [1], "dtype": "int32"}, {"name": "Postprocessor/BatchMultiClassNonMaxSuppression/map/while/MultiClassNonMaxSuppression/mul_5/x", "shape": [], "dtype": "float32", "quantization": {"min": -1.0, "scale": 1.0, "dtype": "uint16"}}, {"name": "Postprocessor/BatchMultiClassNonMaxSuppression/map/while/MultiClassNonMaxSuppression/add_3/y", "shape": [], "dtype": "float32", "quantization": {"min": 1.0, "scale": 1.0, "dtype": "uint16"}}, {"name": "Postprocessor/BatchMultiClassNonMaxSuppression/map/while/MultiClassNonMaxSuppression/Slice_1/begin", "shape": [2], "dtype": "int32"}, {"name": "Postprocessor/BatchMultiClassNonMaxSuppression/map/while/MultiClassNonMaxSuppression/Slice_2/begin", "shape": [2], "dtype": "int32"}, {"name": "Postprocessor/BatchMultiClassNonMaxSuppression/map/while/MultiClassNonMaxSuppression/Slice_3/begin", "shape": [2], "dtype": "int32"}, {"name": "Postprocessor/BatchMultiClassNonMaxSuppression/map/while/MultiClassNonMaxSuppression/Slice_4/begin", "shape": [2], "dtype": "int32"}, {"name": "Postprocessor/BatchMultiClassNonMaxSuppression/map/while/Slice_4/begin", "shape": [2], "dtype": "int32"}, {"name": "Postprocessor/BatchMultiClassNonMaxSuppression/map/while/Reshape_1/shape", "shape": [2], "dtype": "int32"}, {"name": "Postprocessor/BatchMultiClassNonMaxSuppression/map/while/PadOrClipBoxList/sub_2/x", "shape": [], "dtype": "int32"}, {"name": "Postprocessor/BatchMultiClassNonMaxSuppression/map/while/Slice/begin", "shape": [3], "dtype": "int32"}, {"name": "Postprocessor/BatchMultiClassNonMaxSuppression/map/while/PadOrClipBoxList/Select/e", "shape": [], "dtype": "int32"}, {"name": "Postprocessor/BatchMultiClassNonMaxSuppression/map/while/Reshape/shape", "shape": [3], "dtype": "int32"}, {"name": "Postprocessor/BatchMultiClassNonMaxSuppression/map/while/MultiClassNonMaxSuppression/non_max_suppression/iou_threshold", "shape": [], "dtype": "float32", "quantization": {"min": 0.6000000238418579, "scale": 1.0, "dtype": "uint16"}}, {"name": "Postprocessor/BatchMultiClassNonMaxSuppression/map/while/MultiClassNonMaxSuppression/non_max_suppression/score_threshold", "shape": [], "dtype": "float32", "quantization": {"min": 9.99999993922529e-09, "scale": 1.0, "dtype": "uint16"}}, {"name": "Postprocessor/BatchMultiClassNonMaxSuppression/map/while/MultiClassNonMaxSuppression/add_1/y", "shape": [], "dtype": "float32", "quantization": {"min": 0.0, "scale": 1.0, "dtype": "uint16"}}, {"name": "Postprocessor/BatchMultiClassNonMaxSuppression/map/while/MultiClassNonMaxSuppression/ones_5/Reshape/shape", "shape": [1], "dtype": "int32"}, {"name": "Postprocessor/BatchMultiClassNonMaxSuppression/map/while/PadOrClipBoxList/zeros_1/Const", "shape": [], "dtype": "int32"}, {"name": "Postprocessor/BatchMultiClassNonMaxSuppression/map/while/PadOrClipBoxList/strided_slice_2/stack", "shape": [1], "dtype": "int32"}, {"name": "Postprocessor/BatchMultiClassNonMaxSuppression/map/while/PadOrClipBoxList/strided_slice_2/stack_1", "shape": [1], "dtype": "int32"}, {"name": "Postprocessor/BatchMultiClassNonMaxSuppression/map/while/MultiClassNonMaxSuppression/range_5/delta", "shape": [], "dtype": "int32"}, {"name": "Postprocessor/BatchMultiClassNonMaxSuppression/map/while/PadOrClipBoxList/zeros_1", "shape": [2], "dtype": "int32"}, {"name": "Postprocessor/BatchMultiClassNonMaxSuppression/map/while/PadOrClipBoxList/zeros_11", "shape": [1], "dtype": "int32"}, {"name": "ConstantFolding/Postprocessor/BatchMultiClassNonMaxSuppression/map/while/PadOrClipBoxList/Slice_5/size_const_axis", "shape": [], "dtype": "int32"}, {"name": "ConstantFolding/Postprocessor/BatchMultiClassNonMaxSuppression/map/while/PadOrClipBoxList/Slice_1/size_const_axis", "shape": [], "dtype": "int32"}, {"name": "ConstantFolding/Postprocessor/BatchMultiClassNonMaxSuppression/map/while/PadOrClipBoxList/stack_5/values_1_const_axis", "shape": [], "dtype": "int32"}, {"name": "ConstantFolding/Postprocessor/BatchMultiClassNonMaxSuppression/map/while/PadOrClipBoxList/stack_1/values_1_const_axis", "shape": [], "dtype": "int32"}]}]}